{"format": "graph-model", "generatedBy": "2.8.0", "convertedBy": "TensorFlow.js Converter v3.18.0", "signature": {"inputs": {"input_4": {"name": "input_4:0", "dtype": "DT_FLOAT", "tensorShape": {"dim": [{"size": "-1"}, {"size": "250"}, {"size": "250"}, {"size": "3"}]}}}, "outputs": {"dense_3": {"name": "Identity:0", "dtype": "DT_FLOAT", "tensorShape": {"dim": [{"size": "-1"}, {"size": "108"}]}}}}, "modelTopology": {"node": [{"name": "StatefulPartitionedCall/sequential_3/dense_3/MatMul/ReadVariableOp", "op": "Const", "attr": {"dtype": {"type": "DT_FLOAT"}, "value": {"tensor": {"dtype": "DT_FLOAT", "tensorShape": {"dim": [{"size": "1280"}, {"size": "108"}]}}}}}, {"name": "StatefulPartitionedCall/sequential_3/dense_3/BiasAdd/ReadVariableOp", "op": "Const", "attr": {"dtype": {"type": "DT_FLOAT"}, "value": {"tensor": {"dtype": "DT_FLOAT", "tensorShape": {"dim": [{"size": "108"}]}}}}}, {"name": "input_4", "op": "Placeholder", "attr": {"dtype": {"type": "DT_FLOAT"}, "shape": {"shape": {"dim": [{"size": "-1"}, {"size": "250"}, {"size": "250"}, {"size": "3"}]}}}}, {"name": "StatefulPartitionedCall/sequential_3/EfficientNet/StatefulPartitionedCall/StatefulPartitionedCall/StatefulPartitionedCall/stem/StatefulPartitionedCall/conv2d/Conv2D_weights", "op": "Const", "attr": {"dtype": {"type": "DT_FLOAT"}, "value": {"tensor": {"dtype": "DT_FLOAT", "tensorShape": {"dim": [{"size": "3"}, {"size": "3"}, {"size": "3"}, {"size": "32"}]}}}}}, {"name": "StatefulPartitionedCall/sequential_3/EfficientNet/StatefulPartitionedCall/StatefulPartitionedCall/StatefulPartitionedCall/stem/StatefulPartitionedCall/conv2d/Conv2D_bn_offset", "op": "Const", "attr": {"dtype": {"type": "DT_FLOAT"}, "value": {"tensor": {"dtype": "DT_FLOAT", "tensorShape": {"dim": [{"size": "32"}]}}}}}, {"name": "StatefulPartitionedCall/sequential_3/EfficientNet/StatefulPartitionedCall/StatefulPartitionedCall/StatefulPartitionedCall/blocks_0/StatefulPartitionedCall/conv2d/Conv2D_weights", "op": "Const", "attr": {"dtype": {"type": "DT_FLOAT"}, "value": {"tensor": {"dtype": "DT_FLOAT", "tensorShape": {"dim": [{"size": "3"}, {"size": "3"}, {"size": "32"}, {"size": "32"}]}}}}}, {"name": "StatefulPartitionedCall/sequential_3/EfficientNet/StatefulPartitionedCall/StatefulPartitionedCall/StatefulPartitionedCall/blocks_0/StatefulPartitionedCall/conv2d/Conv2D_bn_offset", "op": "Const", "attr": {"value": {"tensor": {"dtype": "DT_FLOAT", "tensorShape": {"dim": [{"size": "32"}]}}}, "dtype": {"type": "DT_FLOAT"}}}, {"name": "StatefulPartitionedCall/sequential_3/EfficientNet/StatefulPartitionedCall/StatefulPartitionedCall/StatefulPartitionedCall/blocks_1/StatefulPartitionedCall/conv2d/Conv2D_weights", "op": "Const", "attr": {"value": {"tensor": {"dtype": "DT_FLOAT", "tensorShape": {"dim": [{"size": "3"}, {"size": "3"}, {"size": "32"}, {"size": "32"}]}}}, "dtype": {"type": "DT_FLOAT"}}}, {"name": "StatefulPartitionedCall/sequential_3/EfficientNet/StatefulPartitionedCall/StatefulPartitionedCall/StatefulPartitionedCall/blocks_1/StatefulPartitionedCall/conv2d/Conv2D_bn_offset", "op": "Const", "attr": {"dtype": {"type": "DT_FLOAT"}, "value": {"tensor": {"dtype": "DT_FLOAT", "tensorShape": {"dim": [{"size": "32"}]}}}}}, {"name": "StatefulPartitionedCall/sequential_3/EfficientNet/StatefulPartitionedCall/StatefulPartitionedCall/StatefulPartitionedCall/blocks_2/StatefulPartitionedCall/conv2d/Conv2D_weights", "op": "Const", "attr": {"value": {"tensor": {"dtype": "DT_FLOAT", "tensorShape": {"dim": [{"size": "3"}, {"size": "3"}, {"size": "32"}, {"size": "32"}]}}}, "dtype": {"type": "DT_FLOAT"}}}, {"name": "StatefulPartitionedCall/sequential_3/EfficientNet/StatefulPartitionedCall/StatefulPartitionedCall/StatefulPartitionedCall/blocks_2/StatefulPartitionedCall/conv2d/Conv2D_bn_offset", "op": "Const", "attr": {"value": {"tensor": {"dtype": "DT_FLOAT", "tensorShape": {"dim": [{"size": "32"}]}}}, "dtype": {"type": "DT_FLOAT"}}}, {"name": "StatefulPartitionedCall/sequential_3/EfficientNet/StatefulPartitionedCall/StatefulPartitionedCall/StatefulPartitionedCall/blocks_3/StatefulPartitionedCall/conv2d/Conv2D_weights", "op": "Const", "attr": {"dtype": {"type": "DT_FLOAT"}, "value": {"tensor": {"dtype": "DT_FLOAT", "tensorShape": {"dim": [{"size": "3"}, {"size": "3"}, {"size": "32"}, {"size": "32"}]}}}}}, {"name": "StatefulPartitionedCall/sequential_3/EfficientNet/StatefulPartitionedCall/StatefulPartitionedCall/StatefulPartitionedCall/blocks_68/StatefulPartitionedCall/conv2d_1/Conv2D_weights", "op": "Const", "attr": {"value": {"tensor": {"dtype": "DT_FLOAT", "tensorShape": {"dim": [{"size": "1"}, {"size": "1"}, {"size": "2304"}, {"size": "384"}]}}}, "dtype": {"type": "DT_FLOAT"}}}, {"name": "StatefulPartitionedCall/sequential_3/EfficientNet/StatefulPartitionedCall/StatefulPartitionedCall/StatefulPartitionedCall/blocks_3/StatefulPartitionedCall/conv2d/Conv2D_bn_offset", "op": "Const", "attr": {"value": {"tensor": {"dtype": "DT_FLOAT", "tensorShape": {"dim": [{"size": "32"}]}}}, "dtype": {"type": "DT_FLOAT"}}}, {"name": "StatefulPartitionedCall/sequential_3/EfficientNet/StatefulPartitionedCall/StatefulPartitionedCall/StatefulPartitionedCall/blocks_4/StatefulPartitionedCall/conv2d/Conv2D_weights", "op": "Const", "attr": {"dtype": {"type": "DT_FLOAT"}, "value": {"tensor": {"dtype": "DT_FLOAT", "tensorShape": {"dim": [{"size": "3"}, {"size": "3"}, {"size": "32"}, {"size": "128"}]}}}}}, {"name": "StatefulPartitionedCall/sequential_3/EfficientNet/StatefulPartitionedCall/StatefulPartitionedCall/StatefulPartitionedCall/blocks_4/StatefulPartitionedCall/conv2d/Conv2D_bn_offset", "op": "Const", "attr": {"value": {"tensor": {"dtype": "DT_FLOAT", "tensorShape": {"dim": [{"size": "128"}]}}}, "dtype": {"type": "DT_FLOAT"}}}, {"name": "StatefulPartitionedCall/sequential_3/EfficientNet/StatefulPartitionedCall/StatefulPartitionedCall/StatefulPartitionedCall/blocks_4/StatefulPartitionedCall/conv2d_1/Conv2D_weights", "op": "Const", "attr": {"value": {"tensor": {"dtype": "DT_FLOAT", "tensorShape": {"dim": [{"size": "1"}, {"size": "1"}, {"size": "128"}, {"size": "64"}]}}}, "dtype": {"type": "DT_FLOAT"}}}, {"name": "StatefulPartitionedCall/sequential_3/EfficientNet/StatefulPartitionedCall/StatefulPartitionedCall/StatefulPartitionedCall/blocks_68/StatefulPartitionedCall/conv2d_1/Conv2D_bn_offset", "op": "Const", "attr": {"dtype": {"type": "DT_FLOAT"}, "value": {"tensor": {"dtype": "DT_FLOAT", "tensorShape": {"dim": [{"size": "384"}]}}}}}, {"name": "StatefulPartitionedCall/sequential_3/EfficientNet/StatefulPartitionedCall/StatefulPartitionedCall/StatefulPartitionedCall/blocks_4/StatefulPartitionedCall/conv2d_1/Conv2D_bn_offset", "op": "Const", "attr": {"value": {"tensor": {"dtype": "DT_FLOAT", "tensorShape": {"dim": [{"size": "64"}]}}}, "dtype": {"type": "DT_FLOAT"}}}, {"name": "StatefulPartitionedCall/sequential_3/EfficientNet/StatefulPartitionedCall/StatefulPartitionedCall/StatefulPartitionedCall/blocks_5/StatefulPartitionedCall/conv2d/Conv2D_weights", "op": "Const", "attr": {"value": {"tensor": {"dtype": "DT_FLOAT", "tensorShape": {"dim": [{"size": "3"}, {"size": "3"}, {"size": "64"}, {"size": "256"}]}}}, "dtype": {"type": "DT_FLOAT"}}}, {"name": "StatefulPartitionedCall/sequential_3/EfficientNet/StatefulPartitionedCall/StatefulPartitionedCall/StatefulPartitionedCall/blocks_5/StatefulPartitionedCall/conv2d/Conv2D_bn_offset", "op": "Const", "attr": {"value": {"tensor": {"dtype": "DT_FLOAT", "tensorShape": {"dim": [{"size": "256"}]}}}, "dtype": {"type": "DT_FLOAT"}}}, {"name": "StatefulPartitionedCall/sequential_3/EfficientNet/StatefulPartitionedCall/StatefulPartitionedCall/StatefulPartitionedCall/blocks_5/StatefulPartitionedCall/conv2d_1/Conv2D_weights", "op": "Const", "attr": {"dtype": {"type": "DT_FLOAT"}, "value": {"tensor": {"dtype": "DT_FLOAT", "tensorShape": {"dim": [{"size": "1"}, {"size": "1"}, {"size": "256"}, {"size": "64"}]}}}}}, {"name": "StatefulPartitionedCall/sequential_3/EfficientNet/StatefulPartitionedCall/StatefulPartitionedCall/StatefulPartitionedCall/blocks_5/StatefulPartitionedCall/conv2d_1/Conv2D_bn_offset", "op": "Const", "attr": {"dtype": {"type": "DT_FLOAT"}, "value": {"tensor": {"dtype": "DT_FLOAT", "tensorShape": {"dim": [{"size": "64"}]}}}}}, {"name": "StatefulPartitionedCall/sequential_3/EfficientNet/StatefulPartitionedCall/StatefulPartitionedCall/StatefulPartitionedCall/blocks_6/StatefulPartitionedCall/conv2d/Conv2D_weights", "op": "Const", "attr": {"dtype": {"type": "DT_FLOAT"}, "value": {"tensor": {"dtype": "DT_FLOAT", "tensorShape": {"dim": [{"size": "3"}, {"size": "3"}, {"size": "64"}, {"size": "256"}]}}}}}, {"name": "StatefulPartitionedCall/sequential_3/EfficientNet/StatefulPartitionedCall/StatefulPartitionedCall/StatefulPartitionedCall/blocks_69/StatefulPartitionedCall/conv2d/Conv2D_weights", "op": "Const", "attr": {"dtype": {"type": "DT_FLOAT"}, "value": {"tensor": {"dtype": "DT_FLOAT", "tensorShape": {"dim": [{"size": "1"}, {"size": "1"}, {"size": "384"}, {"size": "2304"}]}}}}}, {"name": "StatefulPartitionedCall/sequential_3/EfficientNet/StatefulPartitionedCall/StatefulPartitionedCall/StatefulPartitionedCall/blocks_6/StatefulPartitionedCall/conv2d/Conv2D_bn_offset", "op": "Const", "attr": {"dtype": {"type": "DT_FLOAT"}, "value": {"tensor": {"dtype": "DT_FLOAT", "tensorShape": {"dim": [{"size": "256"}]}}}}}, {"name": "StatefulPartitionedCall/sequential_3/EfficientNet/StatefulPartitionedCall/StatefulPartitionedCall/StatefulPartitionedCall/blocks_6/StatefulPartitionedCall/conv2d_1/Conv2D_weights", "op": "Const", "attr": {"dtype": {"type": "DT_FLOAT"}, "value": {"tensor": {"dtype": "DT_FLOAT", "tensorShape": {"dim": [{"size": "1"}, {"size": "1"}, {"size": "256"}, {"size": "64"}]}}}}}, {"name": "StatefulPartitionedCall/sequential_3/EfficientNet/StatefulPartitionedCall/StatefulPartitionedCall/StatefulPartitionedCall/blocks_77/StatefulPartitionedCall/conv2d_1/Conv2D_weights", "op": "Const", "attr": {"dtype": {"type": "DT_FLOAT"}, "value": {"tensor": {"dtype": "DT_FLOAT", "tensorShape": {"dim": [{"size": "1"}, {"size": "1"}, {"size": "3840"}, {"size": "640"}]}}}}}, {"name": "StatefulPartitionedCall/sequential_3/EfficientNet/StatefulPartitionedCall/StatefulPartitionedCall/StatefulPartitionedCall/blocks_6/StatefulPartitionedCall/conv2d_1/Conv2D_bn_offset", "op": "Const", "attr": {"value": {"tensor": {"dtype": "DT_FLOAT", "tensorShape": {"dim": [{"size": "64"}]}}}, "dtype": {"type": "DT_FLOAT"}}}, {"name": "StatefulPartitionedCall/sequential_3/EfficientNet/StatefulPartitionedCall/StatefulPartitionedCall/StatefulPartitionedCall/blocks_7/StatefulPartitionedCall/conv2d/Conv2D_weights", "op": "Const", "attr": {"dtype": {"type": "DT_FLOAT"}, "value": {"tensor": {"dtype": "DT_FLOAT", "tensorShape": {"dim": [{"size": "3"}, {"size": "3"}, {"size": "64"}, {"size": "256"}]}}}}}, {"name": "StatefulPartitionedCall/sequential_3/EfficientNet/StatefulPartitionedCall/StatefulPartitionedCall/StatefulPartitionedCall/blocks_69/StatefulPartitionedCall/conv2d/Conv2D_bn_offset", "op": "Const", "attr": {"value": {"tensor": {"dtype": "DT_FLOAT", "tensorShape": {"dim": [{"size": "2304"}]}}}, "dtype": {"type": "DT_FLOAT"}}}, {"name": "StatefulPartitionedCall/sequential_3/EfficientNet/StatefulPartitionedCall/StatefulPartitionedCall/StatefulPartitionedCall/blocks_7/StatefulPartitionedCall/conv2d/Conv2D_bn_offset", "op": "Const", "attr": {"value": {"tensor": {"dtype": "DT_FLOAT", "tensorShape": {"dim": [{"size": "256"}]}}}, "dtype": {"type": "DT_FLOAT"}}}, {"name": "StatefulPartitionedCall/sequential_3/EfficientNet/StatefulPartitionedCall/StatefulPartitionedCall/StatefulPartitionedCall/blocks_7/StatefulPartitionedCall/conv2d_1/Conv2D_weights", "op": "Const", "attr": {"dtype": {"type": "DT_FLOAT"}, "value": {"tensor": {"dtype": "DT_FLOAT", "tensorShape": {"dim": [{"size": "1"}, {"size": "1"}, {"size": "256"}, {"size": "64"}]}}}}}, {"name": "StatefulPartitionedCall/sequential_3/EfficientNet/StatefulPartitionedCall/StatefulPartitionedCall/StatefulPartitionedCall/blocks_7/StatefulPartitionedCall/conv2d_1/Conv2D_bn_offset", "op": "Const", "attr": {"dtype": {"type": "DT_FLOAT"}, "value": {"tensor": {"dtype": "DT_FLOAT", "tensorShape": {"dim": [{"size": "64"}]}}}}}, {"name": "StatefulPartitionedCall/sequential_3/EfficientNet/StatefulPartitionedCall/StatefulPartitionedCall/StatefulPartitionedCall/blocks_8/StatefulPartitionedCall/conv2d/Conv2D_weights", "op": "Const", "attr": {"dtype": {"type": "DT_FLOAT"}, "value": {"tensor": {"dtype": "DT_FLOAT", "tensorShape": {"dim": [{"size": "3"}, {"size": "3"}, {"size": "64"}, {"size": "256"}]}}}}}, {"name": "StatefulPartitionedCall/sequential_3/EfficientNet/StatefulPartitionedCall/StatefulPartitionedCall/StatefulPartitionedCall/blocks_8/StatefulPartitionedCall/conv2d/Conv2D_bn_offset", "op": "Const", "attr": {"dtype": {"type": "DT_FLOAT"}, "value": {"tensor": {"dtype": "DT_FLOAT", "tensorShape": {"dim": [{"size": "256"}]}}}}}, {"name": "StatefulPartitionedCall/sequential_3/EfficientNet/StatefulPartitionedCall/StatefulPartitionedCall/StatefulPartitionedCall/blocks_8/StatefulPartitionedCall/conv2d_1/Conv2D_weights", "op": "Const", "attr": {"value": {"tensor": {"dtype": "DT_FLOAT", "tensorShape": {"dim": [{"size": "1"}, {"size": "1"}, {"size": "256"}, {"size": "64"}]}}}, "dtype": {"type": "DT_FLOAT"}}}, {"name": "StatefulPartitionedCall/sequential_3/EfficientNet/StatefulPartitionedCall/StatefulPartitionedCall/StatefulPartitionedCall/blocks_8/StatefulPartitionedCall/conv2d_1/Conv2D_bn_offset", "op": "Const", "attr": {"dtype": {"type": "DT_FLOAT"}, "value": {"tensor": {"dtype": "DT_FLOAT", "tensorShape": {"dim": [{"size": "64"}]}}}}}, {"name": "StatefulPartitionedCall/sequential_3/EfficientNet/StatefulPartitionedCall/StatefulPartitionedCall/StatefulPartitionedCall/blocks_9/StatefulPartitionedCall/conv2d/Conv2D_weights", "op": "Const", "attr": {"dtype": {"type": "DT_FLOAT"}, "value": {"tensor": {"dtype": "DT_FLOAT", "tensorShape": {"dim": [{"size": "3"}, {"size": "3"}, {"size": "64"}, {"size": "256"}]}}}}}, {"name": "StatefulPartitionedCall/sequential_3/EfficientNet/StatefulPartitionedCall/StatefulPartitionedCall/StatefulPartitionedCall/blocks_69/StatefulPartitionedCall/depthwise_conv2d/depthwise_weights", "op": "Const", "attr": {"dtype": {"type": "DT_FLOAT"}, "value": {"tensor": {"dtype": "DT_FLOAT", "tensorShape": {"dim": [{"size": "3"}, {"size": "3"}, {"size": "2304"}, {"size": "1"}]}}}}}, {"name": "StatefulPartitionedCall/sequential_3/EfficientNet/StatefulPartitionedCall/StatefulPartitionedCall/StatefulPartitionedCall/blocks_9/StatefulPartitionedCall/conv2d/Conv2D_bn_offset", "op": "Const", "attr": {"value": {"tensor": {"dtype": "DT_FLOAT", "tensorShape": {"dim": [{"size": "256"}]}}}, "dtype": {"type": "DT_FLOAT"}}}, {"name": "StatefulPartitionedCall/sequential_3/EfficientNet/StatefulPartitionedCall/StatefulPartitionedCall/StatefulPartitionedCall/blocks_9/StatefulPartitionedCall/conv2d_1/Conv2D_weights", "op": "Const", "attr": {"dtype": {"type": "DT_FLOAT"}, "value": {"tensor": {"dtype": "DT_FLOAT", "tensorShape": {"dim": [{"size": "1"}, {"size": "1"}, {"size": "256"}, {"size": "64"}]}}}}}, {"name": "StatefulPartitionedCall/sequential_3/EfficientNet/StatefulPartitionedCall/StatefulPartitionedCall/StatefulPartitionedCall/blocks_9/StatefulPartitionedCall/conv2d_1/Conv2D_bn_offset", "op": "Const", "attr": {"dtype": {"type": "DT_FLOAT"}, "value": {"tensor": {"dtype": "DT_FLOAT", "tensorShape": {"dim": [{"size": "64"}]}}}}}, {"name": "StatefulPartitionedCall/sequential_3/EfficientNet/StatefulPartitionedCall/StatefulPartitionedCall/StatefulPartitionedCall/blocks_10/StatefulPartitionedCall/conv2d/Conv2D_weights", "op": "Const", "attr": {"value": {"tensor": {"dtype": "DT_FLOAT", "tensorShape": {"dim": [{"size": "3"}, {"size": "3"}, {"size": "64"}, {"size": "256"}]}}}, "dtype": {"type": "DT_FLOAT"}}}, {"name": "StatefulPartitionedCall/sequential_3/EfficientNet/StatefulPartitionedCall/StatefulPartitionedCall/StatefulPartitionedCall/blocks_69/StatefulPartitionedCall/depthwise_conv2d/depthwise_bn_offset", "op": "Const", "attr": {"dtype": {"type": "DT_FLOAT"}, "value": {"tensor": {"dtype": "DT_FLOAT", "tensorShape": {"dim": [{"size": "2304"}]}}}}}, {"name": "StatefulPartitionedCall/sequential_3/EfficientNet/StatefulPartitionedCall/StatefulPartitionedCall/StatefulPartitionedCall/blocks_10/StatefulPartitionedCall/conv2d/Conv2D_bn_offset", "op": "Const", "attr": {"value": {"tensor": {"dtype": "DT_FLOAT", "tensorShape": {"dim": [{"size": "256"}]}}}, "dtype": {"type": "DT_FLOAT"}}}, {"name": "StatefulPartitionedCall/sequential_3/EfficientNet/StatefulPartitionedCall/StatefulPartitionedCall/StatefulPartitionedCall/blocks_10/StatefulPartitionedCall/conv2d_1/Conv2D_weights", "op": "Const", "attr": {"value": {"tensor": {"dtype": "DT_FLOAT", "tensorShape": {"dim": [{"size": "1"}, {"size": "1"}, {"size": "256"}, {"size": "64"}]}}}, "dtype": {"type": "DT_FLOAT"}}}, {"name": "StatefulPartitionedCall/sequential_3/EfficientNet/StatefulPartitionedCall/StatefulPartitionedCall/StatefulPartitionedCall/blocks_10/StatefulPartitionedCall/conv2d_1/Conv2D_bn_offset", "op": "Const", "attr": {"dtype": {"type": "DT_FLOAT"}, "value": {"tensor": {"dtype": "DT_FLOAT", "tensorShape": {"dim": [{"size": "64"}]}}}}}, {"name": "StatefulPartitionedCall/sequential_3/EfficientNet/StatefulPartitionedCall/StatefulPartitionedCall/StatefulPartitionedCall/blocks_11/StatefulPartitionedCall/conv2d/Conv2D_weights", "op": "Const", "attr": {"dtype": {"type": "DT_FLOAT"}, "value": {"tensor": {"dtype": "DT_FLOAT", "tensorShape": {"dim": [{"size": "3"}, {"size": "3"}, {"size": "64"}, {"size": "256"}]}}}}}, {"name": "StatefulPartitionedCall/sequential_3/EfficientNet/StatefulPartitionedCall/StatefulPartitionedCall/StatefulPartitionedCall/blocks_11/StatefulPartitionedCall/conv2d/Conv2D_bn_offset", "op": "Const", "attr": {"dtype": {"type": "DT_FLOAT"}, "value": {"tensor": {"dtype": "DT_FLOAT", "tensorShape": {"dim": [{"size": "256"}]}}}}}, {"name": "StatefulPartitionedCall/sequential_3/EfficientNet/StatefulPartitionedCall/StatefulPartitionedCall/StatefulPartitionedCall/blocks_11/StatefulPartitionedCall/conv2d_1/Conv2D_weights", "op": "Const", "attr": {"value": {"tensor": {"dtype": "DT_FLOAT", "tensorShape": {"dim": [{"size": "1"}, {"size": "1"}, {"size": "256"}, {"size": "96"}]}}}, "dtype": {"type": "DT_FLOAT"}}}, {"name": "StatefulPartitionedCall/sequential_3/EfficientNet/StatefulPartitionedCall/StatefulPartitionedCall/StatefulPartitionedCall/blocks_11/StatefulPartitionedCall/conv2d_1/Conv2D_bn_offset", "op": "Const", "attr": {"value": {"tensor": {"dtype": "DT_FLOAT", "tensorShape": {"dim": [{"size": "96"}]}}}, "dtype": {"type": "DT_FLOAT"}}}, {"name": "StatefulPartitionedCall/sequential_3/EfficientNet/StatefulPartitionedCall/StatefulPartitionedCall/StatefulPartitionedCall/blocks_12/StatefulPartitionedCall/conv2d/Conv2D_weights", "op": "Const", "attr": {"value": {"tensor": {"dtype": "DT_FLOAT", "tensorShape": {"dim": [{"size": "3"}, {"size": "3"}, {"size": "96"}, {"size": "384"}]}}}, "dtype": {"type": "DT_FLOAT"}}}, {"name": "StatefulPartitionedCall/sequential_3/EfficientNet/StatefulPartitionedCall/StatefulPartitionedCall/StatefulPartitionedCall/blocks_12/StatefulPartitionedCall/conv2d/Conv2D_bn_offset", "op": "Const", "attr": {"value": {"tensor": {"dtype": "DT_FLOAT", "tensorShape": {"dim": [{"size": "384"}]}}}, "dtype": {"type": "DT_FLOAT"}}}, {"name": "StatefulPartitionedCall/sequential_3/EfficientNet/StatefulPartitionedCall/StatefulPartitionedCall/StatefulPartitionedCall/blocks_12/StatefulPartitionedCall/conv2d_1/Conv2D_weights", "op": "Const", "attr": {"dtype": {"type": "DT_FLOAT"}, "value": {"tensor": {"dtype": "DT_FLOAT", "tensorShape": {"dim": [{"size": "1"}, {"size": "1"}, {"size": "384"}, {"size": "96"}]}}}}}, {"name": "StatefulPartitionedCall/sequential_3/EfficientNet/StatefulPartitionedCall/StatefulPartitionedCall/StatefulPartitionedCall/blocks_12/StatefulPartitionedCall/conv2d_1/Conv2D_bn_offset", "op": "Const", "attr": {"dtype": {"type": "DT_FLOAT"}, "value": {"tensor": {"dtype": "DT_FLOAT", "tensorShape": {"dim": [{"size": "96"}]}}}}}, {"name": "StatefulPartitionedCall/sequential_3/EfficientNet/StatefulPartitionedCall/StatefulPartitionedCall/StatefulPartitionedCall/blocks_13/StatefulPartitionedCall/conv2d/Conv2D_weights", "op": "Const", "attr": {"value": {"tensor": {"dtype": "DT_FLOAT", "tensorShape": {"dim": [{"size": "3"}, {"size": "3"}, {"size": "96"}, {"size": "384"}]}}}, "dtype": {"type": "DT_FLOAT"}}}, {"name": "StatefulPartitionedCall/sequential_3/EfficientNet/StatefulPartitionedCall/StatefulPartitionedCall/StatefulPartitionedCall/blocks_13/StatefulPartitionedCall/conv2d/Conv2D_bn_offset", "op": "Const", "attr": {"dtype": {"type": "DT_FLOAT"}, "value": {"tensor": {"dtype": "DT_FLOAT", "tensorShape": {"dim": [{"size": "384"}]}}}}}, {"name": "StatefulPartitionedCall/sequential_3/EfficientNet/StatefulPartitionedCall/StatefulPartitionedCall/StatefulPartitionedCall/blocks_13/StatefulPartitionedCall/conv2d_1/Conv2D_weights", "op": "Const", "attr": {"value": {"tensor": {"dtype": "DT_FLOAT", "tensorShape": {"dim": [{"size": "1"}, {"size": "1"}, {"size": "384"}, {"size": "96"}]}}}, "dtype": {"type": "DT_FLOAT"}}}, {"name": "StatefulPartitionedCall/sequential_3/EfficientNet/StatefulPartitionedCall/StatefulPartitionedCall/StatefulPartitionedCall/blocks_13/StatefulPartitionedCall/conv2d_1/Conv2D_bn_offset", "op": "Const", "attr": {"value": {"tensor": {"dtype": "DT_FLOAT", "tensorShape": {"dim": [{"size": "96"}]}}}, "dtype": {"type": "DT_FLOAT"}}}, {"name": "StatefulPartitionedCall/sequential_3/EfficientNet/StatefulPartitionedCall/StatefulPartitionedCall/StatefulPartitionedCall/blocks_14/StatefulPartitionedCall/conv2d/Conv2D_weights", "op": "Const", "attr": {"value": {"tensor": {"dtype": "DT_FLOAT", "tensorShape": {"dim": [{"size": "3"}, {"size": "3"}, {"size": "96"}, {"size": "384"}]}}}, "dtype": {"type": "DT_FLOAT"}}}, {"name": "StatefulPartitionedCall/sequential_3/EfficientNet/StatefulPartitionedCall/StatefulPartitionedCall/StatefulPartitionedCall/blocks_14/StatefulPartitionedCall/conv2d/Conv2D_bn_offset", "op": "Const", "attr": {"dtype": {"type": "DT_FLOAT"}, "value": {"tensor": {"dtype": "DT_FLOAT", "tensorShape": {"dim": [{"size": "384"}]}}}}}, {"name": "StatefulPartitionedCall/sequential_3/EfficientNet/StatefulPartitionedCall/StatefulPartitionedCall/StatefulPartitionedCall/blocks_14/StatefulPartitionedCall/conv2d_1/Conv2D_weights", "op": "Const", "attr": {"value": {"tensor": {"dtype": "DT_FLOAT", "tensorShape": {"dim": [{"size": "1"}, {"size": "1"}, {"size": "384"}, {"size": "96"}]}}}, "dtype": {"type": "DT_FLOAT"}}}, {"name": "StatefulPartitionedCall/sequential_3/EfficientNet/StatefulPartitionedCall/StatefulPartitionedCall/StatefulPartitionedCall/blocks_77/StatefulPartitionedCall/conv2d_1/Conv2D_bn_offset", "op": "Const", "attr": {"value": {"tensor": {"dtype": "DT_FLOAT", "tensorShape": {"dim": [{"size": "640"}]}}}, "dtype": {"type": "DT_FLOAT"}}}, {"name": "StatefulPartitionedCall/sequential_3/EfficientNet/StatefulPartitionedCall/StatefulPartitionedCall/StatefulPartitionedCall/blocks_14/StatefulPartitionedCall/conv2d_1/Conv2D_bn_offset", "op": "Const", "attr": {"value": {"tensor": {"dtype": "DT_FLOAT", "tensorShape": {"dim": [{"size": "96"}]}}}, "dtype": {"type": "DT_FLOAT"}}}, {"name": "StatefulPartitionedCall/sequential_3/EfficientNet/StatefulPartitionedCall/StatefulPartitionedCall/StatefulPartitionedCall/blocks_15/StatefulPartitionedCall/conv2d/Conv2D_weights", "op": "Const", "attr": {"dtype": {"type": "DT_FLOAT"}, "value": {"tensor": {"dtype": "DT_FLOAT", "tensorShape": {"dim": [{"size": "3"}, {"size": "3"}, {"size": "96"}, {"size": "384"}]}}}}}, {"name": "StatefulPartitionedCall/sequential_3/EfficientNet/StatefulPartitionedCall/StatefulPartitionedCall/StatefulPartitionedCall/blocks_15/StatefulPartitionedCall/conv2d/Conv2D_bn_offset", "op": "Const", "attr": {"dtype": {"type": "DT_FLOAT"}, "value": {"tensor": {"dtype": "DT_FLOAT", "tensorShape": {"dim": [{"size": "384"}]}}}}}, {"name": "StatefulPartitionedCall/sequential_3/EfficientNet/StatefulPartitionedCall/StatefulPartitionedCall/StatefulPartitionedCall/blocks_15/StatefulPartitionedCall/conv2d_1/Conv2D_weights", "op": "Const", "attr": {"value": {"tensor": {"dtype": "DT_FLOAT", "tensorShape": {"dim": [{"size": "1"}, {"size": "1"}, {"size": "384"}, {"size": "96"}]}}}, "dtype": {"type": "DT_FLOAT"}}}, {"name": "StatefulPartitionedCall/sequential_3/EfficientNet/StatefulPartitionedCall/StatefulPartitionedCall/StatefulPartitionedCall/blocks_15/StatefulPartitionedCall/conv2d_1/Conv2D_bn_offset", "op": "Const", "attr": {"dtype": {"type": "DT_FLOAT"}, "value": {"tensor": {"dtype": "DT_FLOAT", "tensorShape": {"dim": [{"size": "96"}]}}}}}, {"name": "StatefulPartitionedCall/sequential_3/EfficientNet/StatefulPartitionedCall/StatefulPartitionedCall/StatefulPartitionedCall/blocks_16/StatefulPartitionedCall/conv2d/Conv2D_weights", "op": "Const", "attr": {"value": {"tensor": {"dtype": "DT_FLOAT", "tensorShape": {"dim": [{"size": "3"}, {"size": "3"}, {"size": "96"}, {"size": "384"}]}}}, "dtype": {"type": "DT_FLOAT"}}}, {"name": "StatefulPartitionedCall/sequential_3/EfficientNet/StatefulPartitionedCall/StatefulPartitionedCall/StatefulPartitionedCall/blocks_16/StatefulPartitionedCall/conv2d/Conv2D_bn_offset", "op": "Const", "attr": {"value": {"tensor": {"dtype": "DT_FLOAT", "tensorShape": {"dim": [{"size": "384"}]}}}, "dtype": {"type": "DT_FLOAT"}}}, {"name": "StatefulPartitionedCall/sequential_3/EfficientNet/StatefulPartitionedCall/StatefulPartitionedCall/StatefulPartitionedCall/blocks_16/StatefulPartitionedCall/conv2d_1/Conv2D_weights", "op": "Const", "attr": {"dtype": {"type": "DT_FLOAT"}, "value": {"tensor": {"dtype": "DT_FLOAT", "tensorShape": {"dim": [{"size": "1"}, {"size": "1"}, {"size": "384"}, {"size": "96"}]}}}}}, {"name": "StatefulPartitionedCall/sequential_3/EfficientNet/StatefulPartitionedCall/StatefulPartitionedCall/StatefulPartitionedCall/blocks_69/StatefulPartitionedCall/conv2d_1/Conv2D_weights", "op": "Const", "attr": {"value": {"tensor": {"dtype": "DT_FLOAT", "tensorShape": {"dim": [{"size": "1"}, {"size": "1"}, {"size": "2304"}, {"size": "384"}]}}}, "dtype": {"type": "DT_FLOAT"}}}, {"name": "StatefulPartitionedCall/sequential_3/EfficientNet/StatefulPartitionedCall/StatefulPartitionedCall/StatefulPartitionedCall/blocks_16/StatefulPartitionedCall/conv2d_1/Conv2D_bn_offset", "op": "Const", "attr": {"dtype": {"type": "DT_FLOAT"}, "value": {"tensor": {"dtype": "DT_FLOAT", "tensorShape": {"dim": [{"size": "96"}]}}}}}, {"name": "StatefulPartitionedCall/sequential_3/EfficientNet/StatefulPartitionedCall/StatefulPartitionedCall/StatefulPartitionedCall/blocks_17/StatefulPartitionedCall/conv2d/Conv2D_weights", "op": "Const", "attr": {"value": {"tensor": {"dtype": "DT_FLOAT", "tensorShape": {"dim": [{"size": "3"}, {"size": "3"}, {"size": "96"}, {"size": "384"}]}}}, "dtype": {"type": "DT_FLOAT"}}}, {"name": "StatefulPartitionedCall/sequential_3/EfficientNet/StatefulPartitionedCall/StatefulPartitionedCall/StatefulPartitionedCall/blocks_17/StatefulPartitionedCall/conv2d/Conv2D_bn_offset", "op": "Const", "attr": {"dtype": {"type": "DT_FLOAT"}, "value": {"tensor": {"dtype": "DT_FLOAT", "tensorShape": {"dim": [{"size": "384"}]}}}}}, {"name": "StatefulPartitionedCall/sequential_3/EfficientNet/StatefulPartitionedCall/StatefulPartitionedCall/StatefulPartitionedCall/blocks_17/StatefulPartitionedCall/conv2d_1/Conv2D_weights", "op": "Const", "attr": {"dtype": {"type": "DT_FLOAT"}, "value": {"tensor": {"dtype": "DT_FLOAT", "tensorShape": {"dim": [{"size": "1"}, {"size": "1"}, {"size": "384"}, {"size": "96"}]}}}}}, {"name": "StatefulPartitionedCall/sequential_3/EfficientNet/StatefulPartitionedCall/StatefulPartitionedCall/StatefulPartitionedCall/blocks_69/StatefulPartitionedCall/conv2d_1/Conv2D_bn_offset", "op": "Const", "attr": {"value": {"tensor": {"dtype": "DT_FLOAT", "tensorShape": {"dim": [{"size": "384"}]}}}, "dtype": {"type": "DT_FLOAT"}}}, {"name": "StatefulPartitionedCall/sequential_3/EfficientNet/StatefulPartitionedCall/StatefulPartitionedCall/StatefulPartitionedCall/blocks_17/StatefulPartitionedCall/conv2d_1/Conv2D_bn_offset", "op": "Const", "attr": {"value": {"tensor": {"dtype": "DT_FLOAT", "tensorShape": {"dim": [{"size": "96"}]}}}, "dtype": {"type": "DT_FLOAT"}}}, {"name": "StatefulPartitionedCall/sequential_3/EfficientNet/StatefulPartitionedCall/StatefulPartitionedCall/StatefulPartitionedCall/blocks_18/StatefulPartitionedCall/conv2d/Conv2D_weights", "op": "Const", "attr": {"dtype": {"type": "DT_FLOAT"}, "value": {"tensor": {"dtype": "DT_FLOAT", "tensorShape": {"dim": [{"size": "1"}, {"size": "1"}, {"size": "96"}, {"size": "384"}]}}}}}, {"name": "StatefulPartitionedCall/sequential_3/EfficientNet/StatefulPartitionedCall/StatefulPartitionedCall/StatefulPartitionedCall/blocks_18/StatefulPartitionedCall/conv2d/Conv2D_bn_offset", "op": "Const", "attr": {"value": {"tensor": {"dtype": "DT_FLOAT", "tensorShape": {"dim": [{"size": "384"}]}}}, "dtype": {"type": "DT_FLOAT"}}}, {"name": "StatefulPartitionedCall/sequential_3/EfficientNet/StatefulPartitionedCall/StatefulPartitionedCall/StatefulPartitionedCall/blocks_18/StatefulPartitionedCall/depthwise_conv2d/depthwise_weights", "op": "Const", "attr": {"dtype": {"type": "DT_FLOAT"}, "value": {"tensor": {"dtype": "DT_FLOAT", "tensorShape": {"dim": [{"size": "3"}, {"size": "3"}, {"size": "384"}, {"size": "1"}]}}}}}, {"name": "StatefulPartitionedCall/sequential_3/EfficientNet/StatefulPartitionedCall/StatefulPartitionedCall/StatefulPartitionedCall/blocks_18/StatefulPartitionedCall/depthwise_conv2d/depthwise_bn_offset", "op": "Const", "attr": {"dtype": {"type": "DT_FLOAT"}, "value": {"tensor": {"dtype": "DT_FLOAT", "tensorShape": {"dim": [{"size": "384"}]}}}}}, {"name": "StatefulPartitionedCall/sequential_3/EfficientNet/StatefulPartitionedCall/StatefulPartitionedCall/StatefulPartitionedCall/blocks_70/StatefulPartitionedCall/conv2d/Conv2D_weights", "op": "Const", "attr": {"dtype": {"type": "DT_FLOAT"}, "value": {"tensor": {"dtype": "DT_FLOAT", "tensorShape": {"dim": [{"size": "1"}, {"size": "1"}, {"size": "384"}, {"size": "2304"}]}}}}}, {"name": "StatefulPartitionedCall/sequential_3/EfficientNet/StatefulPartitionedCall/StatefulPartitionedCall/StatefulPartitionedCall/blocks_18/StatefulPartitionedCall/conv2d_1/Conv2D_weights", "op": "Const", "attr": {"value": {"tensor": {"dtype": "DT_FLOAT", "tensorShape": {"dim": [{"size": "1"}, {"size": "1"}, {"size": "384"}, {"size": "192"}]}}}, "dtype": {"type": "DT_FLOAT"}}}, {"name": "StatefulPartitionedCall/sequential_3/EfficientNet/StatefulPartitionedCall/StatefulPartitionedCall/StatefulPartitionedCall/blocks_18/StatefulPartitionedCall/conv2d_1/Conv2D_bn_offset", "op": "Const", "attr": {"value": {"tensor": {"dtype": "DT_FLOAT", "tensorShape": {"dim": [{"size": "192"}]}}}, "dtype": {"type": "DT_FLOAT"}}}, {"name": "StatefulPartitionedCall/sequential_3/EfficientNet/StatefulPartitionedCall/StatefulPartitionedCall/StatefulPartitionedCall/blocks_19/StatefulPartitionedCall/conv2d/Conv2D_weights", "op": "Const", "attr": {"dtype": {"type": "DT_FLOAT"}, "value": {"tensor": {"dtype": "DT_FLOAT", "tensorShape": {"dim": [{"size": "1"}, {"size": "1"}, {"size": "192"}, {"size": "768"}]}}}}}, {"name": "StatefulPartitionedCall/sequential_3/EfficientNet/StatefulPartitionedCall/StatefulPartitionedCall/StatefulPartitionedCall/blocks_70/StatefulPartitionedCall/conv2d/Conv2D_bn_offset", "op": "Const", "attr": {"dtype": {"type": "DT_FLOAT"}, "value": {"tensor": {"dtype": "DT_FLOAT", "tensorShape": {"dim": [{"size": "2304"}]}}}}}, {"name": "StatefulPartitionedCall/sequential_3/EfficientNet/StatefulPartitionedCall/StatefulPartitionedCall/StatefulPartitionedCall/blocks_19/StatefulPartitionedCall/conv2d/Conv2D_bn_offset", "op": "Const", "attr": {"dtype": {"type": "DT_FLOAT"}, "value": {"tensor": {"dtype": "DT_FLOAT", "tensorShape": {"dim": [{"size": "768"}]}}}}}, {"name": "StatefulPartitionedCall/sequential_3/EfficientNet/StatefulPartitionedCall/StatefulPartitionedCall/StatefulPartitionedCall/blocks_19/StatefulPartitionedCall/depthwise_conv2d/depthwise_weights", "op": "Const", "attr": {"value": {"tensor": {"dtype": "DT_FLOAT", "tensorShape": {"dim": [{"size": "3"}, {"size": "3"}, {"size": "768"}, {"size": "1"}]}}}, "dtype": {"type": "DT_FLOAT"}}}, {"name": "StatefulPartitionedCall/sequential_3/EfficientNet/StatefulPartitionedCall/StatefulPartitionedCall/StatefulPartitionedCall/blocks_19/StatefulPartitionedCall/depthwise_conv2d/depthwise_bn_offset", "op": "Const", "attr": {"value": {"tensor": {"dtype": "DT_FLOAT", "tensorShape": {"dim": [{"size": "768"}]}}}, "dtype": {"type": "DT_FLOAT"}}}, {"name": "StatefulPartitionedCall/sequential_3/EfficientNet/StatefulPartitionedCall/StatefulPartitionedCall/StatefulPartitionedCall/blocks_19/StatefulPartitionedCall/conv2d_1/Conv2D_weights", "op": "Const", "attr": {"dtype": {"type": "DT_FLOAT"}, "value": {"tensor": {"dtype": "DT_FLOAT", "tensorShape": {"dim": [{"size": "1"}, {"size": "1"}, {"size": "768"}, {"size": "192"}]}}}}}, {"name": "StatefulPartitionedCall/sequential_3/EfficientNet/StatefulPartitionedCall/StatefulPartitionedCall/StatefulPartitionedCall/blocks_19/StatefulPartitionedCall/conv2d_1/Conv2D_bn_offset", "op": "Const", "attr": {"dtype": {"type": "DT_FLOAT"}, "value": {"tensor": {"dtype": "DT_FLOAT", "tensorShape": {"dim": [{"size": "192"}]}}}}}, {"name": "StatefulPartitionedCall/sequential_3/EfficientNet/StatefulPartitionedCall/StatefulPartitionedCall/StatefulPartitionedCall/blocks_20/StatefulPartitionedCall/conv2d/Conv2D_weights", "op": "Const", "attr": {"dtype": {"type": "DT_FLOAT"}, "value": {"tensor": {"dtype": "DT_FLOAT", "tensorShape": {"dim": [{"size": "1"}, {"size": "1"}, {"size": "192"}, {"size": "768"}]}}}}}, {"name": "StatefulPartitionedCall/sequential_3/EfficientNet/StatefulPartitionedCall/StatefulPartitionedCall/StatefulPartitionedCall/blocks_70/StatefulPartitionedCall/depthwise_conv2d/depthwise_weights", "op": "Const", "attr": {"dtype": {"type": "DT_FLOAT"}, "value": {"tensor": {"dtype": "DT_FLOAT", "tensorShape": {"dim": [{"size": "3"}, {"size": "3"}, {"size": "2304"}, {"size": "1"}]}}}}}, {"name": "StatefulPartitionedCall/sequential_3/EfficientNet/StatefulPartitionedCall/StatefulPartitionedCall/StatefulPartitionedCall/blocks_20/StatefulPartitionedCall/conv2d/Conv2D_bn_offset", "op": "Const", "attr": {"value": {"tensor": {"dtype": "DT_FLOAT", "tensorShape": {"dim": [{"size": "768"}]}}}, "dtype": {"type": "DT_FLOAT"}}}, {"name": "StatefulPartitionedCall/sequential_3/EfficientNet/StatefulPartitionedCall/StatefulPartitionedCall/StatefulPartitionedCall/blocks_20/StatefulPartitionedCall/depthwise_conv2d/depthwise_weights", "op": "Const", "attr": {"value": {"tensor": {"dtype": "DT_FLOAT", "tensorShape": {"dim": [{"size": "3"}, {"size": "3"}, {"size": "768"}, {"size": "1"}]}}}, "dtype": {"type": "DT_FLOAT"}}}, {"name": "StatefulPartitionedCall/sequential_3/EfficientNet/StatefulPartitionedCall/StatefulPartitionedCall/StatefulPartitionedCall/blocks_20/StatefulPartitionedCall/depthwise_conv2d/depthwise_bn_offset", "op": "Const", "attr": {"value": {"tensor": {"dtype": "DT_FLOAT", "tensorShape": {"dim": [{"size": "768"}]}}}, "dtype": {"type": "DT_FLOAT"}}}, {"name": "StatefulPartitionedCall/sequential_3/EfficientNet/StatefulPartitionedCall/StatefulPartitionedCall/StatefulPartitionedCall/blocks_70/StatefulPartitionedCall/depthwise_conv2d/depthwise_bn_offset", "op": "Const", "attr": {"value": {"tensor": {"dtype": "DT_FLOAT", "tensorShape": {"dim": [{"size": "2304"}]}}}, "dtype": {"type": "DT_FLOAT"}}}, {"name": "StatefulPartitionedCall/sequential_3/EfficientNet/StatefulPartitionedCall/StatefulPartitionedCall/StatefulPartitionedCall/blocks_20/StatefulPartitionedCall/conv2d_1/Conv2D_weights", "op": "Const", "attr": {"dtype": {"type": "DT_FLOAT"}, "value": {"tensor": {"dtype": "DT_FLOAT", "tensorShape": {"dim": [{"size": "1"}, {"size": "1"}, {"size": "768"}, {"size": "192"}]}}}}}, {"name": "StatefulPartitionedCall/sequential_3/EfficientNet/StatefulPartitionedCall/StatefulPartitionedCall/StatefulPartitionedCall/blocks_20/StatefulPartitionedCall/conv2d_1/Conv2D_bn_offset", "op": "Const", "attr": {"value": {"tensor": {"dtype": "DT_FLOAT", "tensorShape": {"dim": [{"size": "192"}]}}}, "dtype": {"type": "DT_FLOAT"}}}, {"name": "StatefulPartitionedCall/sequential_3/EfficientNet/StatefulPartitionedCall/StatefulPartitionedCall/StatefulPartitionedCall/blocks_21/StatefulPartitionedCall/conv2d/Conv2D_weights", "op": "Const", "attr": {"dtype": {"type": "DT_FLOAT"}, "value": {"tensor": {"dtype": "DT_FLOAT", "tensorShape": {"dim": [{"size": "1"}, {"size": "1"}, {"size": "192"}, {"size": "768"}]}}}}}, {"name": "StatefulPartitionedCall/sequential_3/EfficientNet/StatefulPartitionedCall/StatefulPartitionedCall/StatefulPartitionedCall/blocks_21/StatefulPartitionedCall/conv2d/Conv2D_bn_offset", "op": "Const", "attr": {"value": {"tensor": {"dtype": "DT_FLOAT", "tensorShape": {"dim": [{"size": "768"}]}}}, "dtype": {"type": "DT_FLOAT"}}}, {"name": "StatefulPartitionedCall/sequential_3/EfficientNet/StatefulPartitionedCall/StatefulPartitionedCall/StatefulPartitionedCall/blocks_21/StatefulPartitionedCall/depthwise_conv2d/depthwise_weights", "op": "Const", "attr": {"dtype": {"type": "DT_FLOAT"}, "value": {"tensor": {"dtype": "DT_FLOAT", "tensorShape": {"dim": [{"size": "3"}, {"size": "3"}, {"size": "768"}, {"size": "1"}]}}}}}, {"name": "StatefulPartitionedCall/sequential_3/EfficientNet/StatefulPartitionedCall/StatefulPartitionedCall/StatefulPartitionedCall/blocks_21/StatefulPartitionedCall/depthwise_conv2d/depthwise_bn_offset", "op": "Const", "attr": {"value": {"tensor": {"dtype": "DT_FLOAT", "tensorShape": {"dim": [{"size": "768"}]}}}, "dtype": {"type": "DT_FLOAT"}}}, {"name": "StatefulPartitionedCall/sequential_3/EfficientNet/StatefulPartitionedCall/StatefulPartitionedCall/StatefulPartitionedCall/blocks_21/StatefulPartitionedCall/conv2d_1/Conv2D_weights", "op": "Const", "attr": {"value": {"tensor": {"dtype": "DT_FLOAT", "tensorShape": {"dim": [{"size": "1"}, {"size": "1"}, {"size": "768"}, {"size": "192"}]}}}, "dtype": {"type": "DT_FLOAT"}}}, {"name": "StatefulPartitionedCall/sequential_3/EfficientNet/StatefulPartitionedCall/StatefulPartitionedCall/StatefulPartitionedCall/blocks_78/StatefulPartitionedCall/conv2d/Conv2D_weights", "op": "Const", "attr": {"dtype": {"type": "DT_FLOAT"}, "value": {"tensor": {"dtype": "DT_FLOAT", "tensorShape": {"dim": [{"size": "1"}, {"size": "1"}, {"size": "640"}, {"size": "3840"}]}}}}}, {"name": "StatefulPartitionedCall/sequential_3/EfficientNet/StatefulPartitionedCall/StatefulPartitionedCall/StatefulPartitionedCall/blocks_21/StatefulPartitionedCall/conv2d_1/Conv2D_bn_offset", "op": "Const", "attr": {"value": {"tensor": {"dtype": "DT_FLOAT", "tensorShape": {"dim": [{"size": "192"}]}}}, "dtype": {"type": "DT_FLOAT"}}}, {"name": "StatefulPartitionedCall/sequential_3/EfficientNet/StatefulPartitionedCall/StatefulPartitionedCall/StatefulPartitionedCall/blocks_22/StatefulPartitionedCall/conv2d/Conv2D_weights", "op": "Const", "attr": {"value": {"tensor": {"dtype": "DT_FLOAT", "tensorShape": {"dim": [{"size": "1"}, {"size": "1"}, {"size": "192"}, {"size": "768"}]}}}, "dtype": {"type": "DT_FLOAT"}}}, {"name": "StatefulPartitionedCall/sequential_3/EfficientNet/StatefulPartitionedCall/StatefulPartitionedCall/StatefulPartitionedCall/blocks_22/StatefulPartitionedCall/conv2d/Conv2D_bn_offset", "op": "Const", "attr": {"dtype": {"type": "DT_FLOAT"}, "value": {"tensor": {"dtype": "DT_FLOAT", "tensorShape": {"dim": [{"size": "768"}]}}}}}, {"name": "StatefulPartitionedCall/sequential_3/EfficientNet/StatefulPartitionedCall/StatefulPartitionedCall/StatefulPartitionedCall/blocks_22/StatefulPartitionedCall/depthwise_conv2d/depthwise_weights", "op": "Const", "attr": {"dtype": {"type": "DT_FLOAT"}, "value": {"tensor": {"dtype": "DT_FLOAT", "tensorShape": {"dim": [{"size": "3"}, {"size": "3"}, {"size": "768"}, {"size": "1"}]}}}}}, {"name": "StatefulPartitionedCall/sequential_3/EfficientNet/StatefulPartitionedCall/StatefulPartitionedCall/StatefulPartitionedCall/blocks_22/StatefulPartitionedCall/depthwise_conv2d/depthwise_bn_offset", "op": "Const", "attr": {"value": {"tensor": {"dtype": "DT_FLOAT", "tensorShape": {"dim": [{"size": "768"}]}}}, "dtype": {"type": "DT_FLOAT"}}}, {"name": "StatefulPartitionedCall/sequential_3/EfficientNet/StatefulPartitionedCall/StatefulPartitionedCall/StatefulPartitionedCall/blocks_22/StatefulPartitionedCall/conv2d_1/Conv2D_weights", "op": "Const", "attr": {"dtype": {"type": "DT_FLOAT"}, "value": {"tensor": {"dtype": "DT_FLOAT", "tensorShape": {"dim": [{"size": "1"}, {"size": "1"}, {"size": "768"}, {"size": "192"}]}}}}}, {"name": "StatefulPartitionedCall/sequential_3/EfficientNet/StatefulPartitionedCall/StatefulPartitionedCall/StatefulPartitionedCall/blocks_22/StatefulPartitionedCall/conv2d_1/Conv2D_bn_offset", "op": "Const", "attr": {"dtype": {"type": "DT_FLOAT"}, "value": {"tensor": {"dtype": "DT_FLOAT", "tensorShape": {"dim": [{"size": "192"}]}}}}}, {"name": "StatefulPartitionedCall/sequential_3/EfficientNet/StatefulPartitionedCall/StatefulPartitionedCall/StatefulPartitionedCall/blocks_23/StatefulPartitionedCall/conv2d/Conv2D_weights", "op": "Const", "attr": {"value": {"tensor": {"dtype": "DT_FLOAT", "tensorShape": {"dim": [{"size": "1"}, {"size": "1"}, {"size": "192"}, {"size": "768"}]}}}, "dtype": {"type": "DT_FLOAT"}}}, {"name": "StatefulPartitionedCall/sequential_3/EfficientNet/StatefulPartitionedCall/StatefulPartitionedCall/StatefulPartitionedCall/blocks_23/StatefulPartitionedCall/conv2d/Conv2D_bn_offset", "op": "Const", "attr": {"dtype": {"type": "DT_FLOAT"}, "value": {"tensor": {"dtype": "DT_FLOAT", "tensorShape": {"dim": [{"size": "768"}]}}}}}, {"name": "StatefulPartitionedCall/sequential_3/EfficientNet/StatefulPartitionedCall/StatefulPartitionedCall/StatefulPartitionedCall/blocks_23/StatefulPartitionedCall/depthwise_conv2d/depthwise_weights", "op": "Const", "attr": {"value": {"tensor": {"dtype": "DT_FLOAT", "tensorShape": {"dim": [{"size": "3"}, {"size": "3"}, {"size": "768"}, {"size": "1"}]}}}, "dtype": {"type": "DT_FLOAT"}}}, {"name": "StatefulPartitionedCall/sequential_3/EfficientNet/StatefulPartitionedCall/StatefulPartitionedCall/StatefulPartitionedCall/blocks_23/StatefulPartitionedCall/depthwise_conv2d/depthwise_bn_offset", "op": "Const", "attr": {"dtype": {"type": "DT_FLOAT"}, "value": {"tensor": {"dtype": "DT_FLOAT", "tensorShape": {"dim": [{"size": "768"}]}}}}}, {"name": "StatefulPartitionedCall/sequential_3/EfficientNet/StatefulPartitionedCall/StatefulPartitionedCall/StatefulPartitionedCall/blocks_23/StatefulPartitionedCall/conv2d_1/Conv2D_weights", "op": "Const", "attr": {"value": {"tensor": {"dtype": "DT_FLOAT", "tensorShape": {"dim": [{"size": "1"}, {"size": "1"}, {"size": "768"}, {"size": "192"}]}}}, "dtype": {"type": "DT_FLOAT"}}}, {"name": "StatefulPartitionedCall/sequential_3/EfficientNet/StatefulPartitionedCall/StatefulPartitionedCall/StatefulPartitionedCall/blocks_70/StatefulPartitionedCall/conv2d_1/Conv2D_weights", "op": "Const", "attr": {"dtype": {"type": "DT_FLOAT"}, "value": {"tensor": {"dtype": "DT_FLOAT", "tensorShape": {"dim": [{"size": "1"}, {"size": "1"}, {"size": "2304"}, {"size": "384"}]}}}}}, {"name": "StatefulPartitionedCall/sequential_3/EfficientNet/StatefulPartitionedCall/StatefulPartitionedCall/StatefulPartitionedCall/blocks_23/StatefulPartitionedCall/conv2d_1/Conv2D_bn_offset", "op": "Const", "attr": {"value": {"tensor": {"dtype": "DT_FLOAT", "tensorShape": {"dim": [{"size": "192"}]}}}, "dtype": {"type": "DT_FLOAT"}}}, {"name": "StatefulPartitionedCall/sequential_3/EfficientNet/StatefulPartitionedCall/StatefulPartitionedCall/StatefulPartitionedCall/blocks_24/StatefulPartitionedCall/conv2d/Conv2D_weights", "op": "Const", "attr": {"value": {"tensor": {"dtype": "DT_FLOAT", "tensorShape": {"dim": [{"size": "1"}, {"size": "1"}, {"size": "192"}, {"size": "768"}]}}}, "dtype": {"type": "DT_FLOAT"}}}, {"name": "StatefulPartitionedCall/sequential_3/EfficientNet/StatefulPartitionedCall/StatefulPartitionedCall/StatefulPartitionedCall/blocks_78/StatefulPartitionedCall/conv2d/Conv2D_bn_offset", "op": "Const", "attr": {"dtype": {"type": "DT_FLOAT"}, "value": {"tensor": {"dtype": "DT_FLOAT", "tensorShape": {"dim": [{"size": "3840"}]}}}}}, {"name": "StatefulPartitionedCall/sequential_3/EfficientNet/StatefulPartitionedCall/StatefulPartitionedCall/StatefulPartitionedCall/blocks_24/StatefulPartitionedCall/conv2d/Conv2D_bn_offset", "op": "Const", "attr": {"value": {"tensor": {"dtype": "DT_FLOAT", "tensorShape": {"dim": [{"size": "768"}]}}}, "dtype": {"type": "DT_FLOAT"}}}, {"name": "StatefulPartitionedCall/sequential_3/EfficientNet/StatefulPartitionedCall/StatefulPartitionedCall/StatefulPartitionedCall/blocks_24/StatefulPartitionedCall/depthwise_conv2d/depthwise_weights", "op": "Const", "attr": {"value": {"tensor": {"dtype": "DT_FLOAT", "tensorShape": {"dim": [{"size": "3"}, {"size": "3"}, {"size": "768"}, {"size": "1"}]}}}, "dtype": {"type": "DT_FLOAT"}}}, {"name": "StatefulPartitionedCall/sequential_3/EfficientNet/StatefulPartitionedCall/StatefulPartitionedCall/StatefulPartitionedCall/blocks_24/StatefulPartitionedCall/depthwise_conv2d/depthwise_bn_offset", "op": "Const", "attr": {"dtype": {"type": "DT_FLOAT"}, "value": {"tensor": {"dtype": "DT_FLOAT", "tensorShape": {"dim": [{"size": "768"}]}}}}}, {"name": "StatefulPartitionedCall/sequential_3/EfficientNet/StatefulPartitionedCall/StatefulPartitionedCall/StatefulPartitionedCall/blocks_70/StatefulPartitionedCall/conv2d_1/Conv2D_bn_offset", "op": "Const", "attr": {"value": {"tensor": {"dtype": "DT_FLOAT", "tensorShape": {"dim": [{"size": "384"}]}}}, "dtype": {"type": "DT_FLOAT"}}}, {"name": "StatefulPartitionedCall/sequential_3/EfficientNet/StatefulPartitionedCall/StatefulPartitionedCall/StatefulPartitionedCall/blocks_24/StatefulPartitionedCall/conv2d_1/Conv2D_weights", "op": "Const", "attr": {"dtype": {"type": "DT_FLOAT"}, "value": {"tensor": {"dtype": "DT_FLOAT", "tensorShape": {"dim": [{"size": "1"}, {"size": "1"}, {"size": "768"}, {"size": "192"}]}}}}}, {"name": "StatefulPartitionedCall/sequential_3/EfficientNet/StatefulPartitionedCall/StatefulPartitionedCall/StatefulPartitionedCall/blocks_24/StatefulPartitionedCall/conv2d_1/Conv2D_bn_offset", "op": "Const", "attr": {"value": {"tensor": {"dtype": "DT_FLOAT", "tensorShape": {"dim": [{"size": "192"}]}}}, "dtype": {"type": "DT_FLOAT"}}}, {"name": "StatefulPartitionedCall/sequential_3/EfficientNet/StatefulPartitionedCall/StatefulPartitionedCall/StatefulPartitionedCall/blocks_25/StatefulPartitionedCall/conv2d/Conv2D_weights", "op": "Const", "attr": {"dtype": {"type": "DT_FLOAT"}, "value": {"tensor": {"dtype": "DT_FLOAT", "tensorShape": {"dim": [{"size": "1"}, {"size": "1"}, {"size": "192"}, {"size": "768"}]}}}}}, {"name": "StatefulPartitionedCall/sequential_3/EfficientNet/StatefulPartitionedCall/StatefulPartitionedCall/StatefulPartitionedCall/blocks_71/StatefulPartitionedCall/conv2d/Conv2D_weights", "op": "Const", "attr": {"value": {"tensor": {"dtype": "DT_FLOAT", "tensorShape": {"dim": [{"size": "1"}, {"size": "1"}, {"size": "384"}, {"size": "2304"}]}}}, "dtype": {"type": "DT_FLOAT"}}}, {"name": "StatefulPartitionedCall/sequential_3/EfficientNet/StatefulPartitionedCall/StatefulPartitionedCall/StatefulPartitionedCall/blocks_25/StatefulPartitionedCall/conv2d/Conv2D_bn_offset", "op": "Const", "attr": {"value": {"tensor": {"dtype": "DT_FLOAT", "tensorShape": {"dim": [{"size": "768"}]}}}, "dtype": {"type": "DT_FLOAT"}}}, {"name": "StatefulPartitionedCall/sequential_3/EfficientNet/StatefulPartitionedCall/StatefulPartitionedCall/StatefulPartitionedCall/blocks_25/StatefulPartitionedCall/depthwise_conv2d/depthwise_weights", "op": "Const", "attr": {"value": {"tensor": {"dtype": "DT_FLOAT", "tensorShape": {"dim": [{"size": "3"}, {"size": "3"}, {"size": "768"}, {"size": "1"}]}}}, "dtype": {"type": "DT_FLOAT"}}}, {"name": "StatefulPartitionedCall/sequential_3/EfficientNet/StatefulPartitionedCall/StatefulPartitionedCall/StatefulPartitionedCall/blocks_25/StatefulPartitionedCall/depthwise_conv2d/depthwise_bn_offset", "op": "Const", "attr": {"dtype": {"type": "DT_FLOAT"}, "value": {"tensor": {"dtype": "DT_FLOAT", "tensorShape": {"dim": [{"size": "768"}]}}}}}, {"name": "StatefulPartitionedCall/sequential_3/EfficientNet/StatefulPartitionedCall/StatefulPartitionedCall/StatefulPartitionedCall/blocks_71/StatefulPartitionedCall/conv2d/Conv2D_bn_offset", "op": "Const", "attr": {"value": {"tensor": {"dtype": "DT_FLOAT", "tensorShape": {"dim": [{"size": "2304"}]}}}, "dtype": {"type": "DT_FLOAT"}}}, {"name": "StatefulPartitionedCall/sequential_3/EfficientNet/StatefulPartitionedCall/StatefulPartitionedCall/StatefulPartitionedCall/blocks_25/StatefulPartitionedCall/conv2d_1/Conv2D_weights", "op": "Const", "attr": {"dtype": {"type": "DT_FLOAT"}, "value": {"tensor": {"dtype": "DT_FLOAT", "tensorShape": {"dim": [{"size": "1"}, {"size": "1"}, {"size": "768"}, {"size": "192"}]}}}}}, {"name": "StatefulPartitionedCall/sequential_3/EfficientNet/StatefulPartitionedCall/StatefulPartitionedCall/StatefulPartitionedCall/blocks_25/StatefulPartitionedCall/conv2d_1/Conv2D_bn_offset", "op": "Const", "attr": {"dtype": {"type": "DT_FLOAT"}, "value": {"tensor": {"dtype": "DT_FLOAT", "tensorShape": {"dim": [{"size": "192"}]}}}}}, {"name": "StatefulPartitionedCall/sequential_3/EfficientNet/StatefulPartitionedCall/StatefulPartitionedCall/StatefulPartitionedCall/blocks_26/StatefulPartitionedCall/conv2d/Conv2D_weights", "op": "Const", "attr": {"dtype": {"type": "DT_FLOAT"}, "value": {"tensor": {"dtype": "DT_FLOAT", "tensorShape": {"dim": [{"size": "1"}, {"size": "1"}, {"size": "192"}, {"size": "768"}]}}}}}, {"name": "StatefulPartitionedCall/sequential_3/EfficientNet/StatefulPartitionedCall/StatefulPartitionedCall/StatefulPartitionedCall/blocks_26/StatefulPartitionedCall/conv2d/Conv2D_bn_offset", "op": "Const", "attr": {"value": {"tensor": {"dtype": "DT_FLOAT", "tensorShape": {"dim": [{"size": "768"}]}}}, "dtype": {"type": "DT_FLOAT"}}}, {"name": "StatefulPartitionedCall/sequential_3/EfficientNet/StatefulPartitionedCall/StatefulPartitionedCall/StatefulPartitionedCall/blocks_26/StatefulPartitionedCall/depthwise_conv2d/depthwise_weights", "op": "Const", "attr": {"dtype": {"type": "DT_FLOAT"}, "value": {"tensor": {"dtype": "DT_FLOAT", "tensorShape": {"dim": [{"size": "3"}, {"size": "3"}, {"size": "768"}, {"size": "1"}]}}}}}, {"name": "StatefulPartitionedCall/sequential_3/EfficientNet/StatefulPartitionedCall/StatefulPartitionedCall/StatefulPartitionedCall/blocks_26/StatefulPartitionedCall/depthwise_conv2d/depthwise_bn_offset", "op": "Const", "attr": {"value": {"tensor": {"dtype": "DT_FLOAT", "tensorShape": {"dim": [{"size": "768"}]}}}, "dtype": {"type": "DT_FLOAT"}}}, {"name": "StatefulPartitionedCall/sequential_3/EfficientNet/StatefulPartitionedCall/StatefulPartitionedCall/StatefulPartitionedCall/blocks_71/StatefulPartitionedCall/depthwise_conv2d/depthwise_weights", "op": "Const", "attr": {"value": {"tensor": {"dtype": "DT_FLOAT", "tensorShape": {"dim": [{"size": "3"}, {"size": "3"}, {"size": "2304"}, {"size": "1"}]}}}, "dtype": {"type": "DT_FLOAT"}}}, {"name": "StatefulPartitionedCall/sequential_3/EfficientNet/StatefulPartitionedCall/StatefulPartitionedCall/StatefulPartitionedCall/blocks_26/StatefulPartitionedCall/conv2d_1/Conv2D_weights", "op": "Const", "attr": {"dtype": {"type": "DT_FLOAT"}, "value": {"tensor": {"dtype": "DT_FLOAT", "tensorShape": {"dim": [{"size": "1"}, {"size": "1"}, {"size": "768"}, {"size": "192"}]}}}}}, {"name": "StatefulPartitionedCall/sequential_3/EfficientNet/StatefulPartitionedCall/StatefulPartitionedCall/StatefulPartitionedCall/blocks_26/StatefulPartitionedCall/conv2d_1/Conv2D_bn_offset", "op": "Const", "attr": {"value": {"tensor": {"dtype": "DT_FLOAT", "tensorShape": {"dim": [{"size": "192"}]}}}, "dtype": {"type": "DT_FLOAT"}}}, {"name": "StatefulPartitionedCall/sequential_3/EfficientNet/StatefulPartitionedCall/StatefulPartitionedCall/StatefulPartitionedCall/blocks_27/StatefulPartitionedCall/conv2d/Conv2D_weights", "op": "Const", "attr": {"value": {"tensor": {"dtype": "DT_FLOAT", "tensorShape": {"dim": [{"size": "1"}, {"size": "1"}, {"size": "192"}, {"size": "768"}]}}}, "dtype": {"type": "DT_FLOAT"}}}, {"name": "StatefulPartitionedCall/sequential_3/EfficientNet/StatefulPartitionedCall/StatefulPartitionedCall/StatefulPartitionedCall/blocks_71/StatefulPartitionedCall/depthwise_conv2d/depthwise_bn_offset", "op": "Const", "attr": {"dtype": {"type": "DT_FLOAT"}, "value": {"tensor": {"dtype": "DT_FLOAT", "tensorShape": {"dim": [{"size": "2304"}]}}}}}, {"name": "StatefulPartitionedCall/sequential_3/EfficientNet/StatefulPartitionedCall/StatefulPartitionedCall/StatefulPartitionedCall/blocks_27/StatefulPartitionedCall/conv2d/Conv2D_bn_offset", "op": "Const", "attr": {"value": {"tensor": {"dtype": "DT_FLOAT", "tensorShape": {"dim": [{"size": "768"}]}}}, "dtype": {"type": "DT_FLOAT"}}}, {"name": "StatefulPartitionedCall/sequential_3/EfficientNet/StatefulPartitionedCall/StatefulPartitionedCall/StatefulPartitionedCall/blocks_27/StatefulPartitionedCall/depthwise_conv2d/depthwise_weights", "op": "Const", "attr": {"value": {"tensor": {"dtype": "DT_FLOAT", "tensorShape": {"dim": [{"size": "3"}, {"size": "3"}, {"size": "768"}, {"size": "1"}]}}}, "dtype": {"type": "DT_FLOAT"}}}, {"name": "StatefulPartitionedCall/sequential_3/EfficientNet/StatefulPartitionedCall/StatefulPartitionedCall/StatefulPartitionedCall/blocks_27/StatefulPartitionedCall/depthwise_conv2d/depthwise_bn_offset", "op": "Const", "attr": {"value": {"tensor": {"dtype": "DT_FLOAT", "tensorShape": {"dim": [{"size": "768"}]}}}, "dtype": {"type": "DT_FLOAT"}}}, {"name": "StatefulPartitionedCall/sequential_3/EfficientNet/StatefulPartitionedCall/StatefulPartitionedCall/StatefulPartitionedCall/blocks_27/StatefulPartitionedCall/conv2d_1/Conv2D_weights", "op": "Const", "attr": {"value": {"tensor": {"dtype": "DT_FLOAT", "tensorShape": {"dim": [{"size": "1"}, {"size": "1"}, {"size": "768"}, {"size": "192"}]}}}, "dtype": {"type": "DT_FLOAT"}}}, {"name": "StatefulPartitionedCall/sequential_3/EfficientNet/StatefulPartitionedCall/StatefulPartitionedCall/StatefulPartitionedCall/blocks_27/StatefulPartitionedCall/conv2d_1/Conv2D_bn_offset", "op": "Const", "attr": {"value": {"tensor": {"dtype": "DT_FLOAT", "tensorShape": {"dim": [{"size": "192"}]}}}, "dtype": {"type": "DT_FLOAT"}}}, {"name": "StatefulPartitionedCall/sequential_3/EfficientNet/StatefulPartitionedCall/StatefulPartitionedCall/StatefulPartitionedCall/blocks_28/StatefulPartitionedCall/conv2d/Conv2D_weights", "op": "Const", "attr": {"value": {"tensor": {"dtype": "DT_FLOAT", "tensorShape": {"dim": [{"size": "1"}, {"size": "1"}, {"size": "192"}, {"size": "1152"}]}}}, "dtype": {"type": "DT_FLOAT"}}}, {"name": "StatefulPartitionedCall/sequential_3/EfficientNet/StatefulPartitionedCall/StatefulPartitionedCall/StatefulPartitionedCall/blocks_28/StatefulPartitionedCall/conv2d/Conv2D_bn_offset", "op": "Const", "attr": {"dtype": {"type": "DT_FLOAT"}, "value": {"tensor": {"dtype": "DT_FLOAT", "tensorShape": {"dim": [{"size": "1152"}]}}}}}, {"name": "StatefulPartitionedCall/sequential_3/EfficientNet/StatefulPartitionedCall/StatefulPartitionedCall/StatefulPartitionedCall/blocks_28/StatefulPartitionedCall/depthwise_conv2d/depthwise_weights", "op": "Const", "attr": {"value": {"tensor": {"dtype": "DT_FLOAT", "tensorShape": {"dim": [{"size": "3"}, {"size": "3"}, {"size": "1152"}, {"size": "1"}]}}}, "dtype": {"type": "DT_FLOAT"}}}, {"name": "StatefulPartitionedCall/sequential_3/EfficientNet/StatefulPartitionedCall/StatefulPartitionedCall/StatefulPartitionedCall/blocks_28/StatefulPartitionedCall/depthwise_conv2d/depthwise_bn_offset", "op": "Const", "attr": {"value": {"tensor": {"dtype": "DT_FLOAT", "tensorShape": {"dim": [{"size": "1152"}]}}}, "dtype": {"type": "DT_FLOAT"}}}, {"name": "StatefulPartitionedCall/sequential_3/EfficientNet/StatefulPartitionedCall/StatefulPartitionedCall/StatefulPartitionedCall/blocks_28/StatefulPartitionedCall/conv2d_1/Conv2D_weights", "op": "Const", "attr": {"dtype": {"type": "DT_FLOAT"}, "value": {"tensor": {"dtype": "DT_FLOAT", "tensorShape": {"dim": [{"size": "1"}, {"size": "1"}, {"size": "1152"}, {"size": "224"}]}}}}}, {"name": "StatefulPartitionedCall/sequential_3/EfficientNet/StatefulPartitionedCall/StatefulPartitionedCall/StatefulPartitionedCall/blocks_28/StatefulPartitionedCall/conv2d_1/Conv2D_bn_offset", "op": "Const", "attr": {"value": {"tensor": {"dtype": "DT_FLOAT", "tensorShape": {"dim": [{"size": "224"}]}}}, "dtype": {"type": "DT_FLOAT"}}}, {"name": "StatefulPartitionedCall/sequential_3/EfficientNet/StatefulPartitionedCall/StatefulPartitionedCall/StatefulPartitionedCall/blocks_29/StatefulPartitionedCall/conv2d/Conv2D_weights", "op": "Const", "attr": {"dtype": {"type": "DT_FLOAT"}, "value": {"tensor": {"dtype": "DT_FLOAT", "tensorShape": {"dim": [{"size": "1"}, {"size": "1"}, {"size": "224"}, {"size": "1344"}]}}}}}, {"name": "StatefulPartitionedCall/sequential_3/EfficientNet/StatefulPartitionedCall/StatefulPartitionedCall/StatefulPartitionedCall/blocks_29/StatefulPartitionedCall/conv2d/Conv2D_bn_offset", "op": "Const", "attr": {"dtype": {"type": "DT_FLOAT"}, "value": {"tensor": {"dtype": "DT_FLOAT", "tensorShape": {"dim": [{"size": "1344"}]}}}}}, {"name": "StatefulPartitionedCall/sequential_3/EfficientNet/StatefulPartitionedCall/StatefulPartitionedCall/StatefulPartitionedCall/blocks_29/StatefulPartitionedCall/depthwise_conv2d/depthwise_weights", "op": "Const", "attr": {"dtype": {"type": "DT_FLOAT"}, "value": {"tensor": {"dtype": "DT_FLOAT", "tensorShape": {"dim": [{"size": "3"}, {"size": "3"}, {"size": "1344"}, {"size": "1"}]}}}}}, {"name": "StatefulPartitionedCall/sequential_3/EfficientNet/StatefulPartitionedCall/StatefulPartitionedCall/StatefulPartitionedCall/blocks_29/StatefulPartitionedCall/depthwise_conv2d/depthwise_bn_offset", "op": "Const", "attr": {"dtype": {"type": "DT_FLOAT"}, "value": {"tensor": {"dtype": "DT_FLOAT", "tensorShape": {"dim": [{"size": "1344"}]}}}}}, {"name": "StatefulPartitionedCall/sequential_3/EfficientNet/StatefulPartitionedCall/StatefulPartitionedCall/StatefulPartitionedCall/blocks_29/StatefulPartitionedCall/conv2d_1/Conv2D_weights", "op": "Const", "attr": {"dtype": {"type": "DT_FLOAT"}, "value": {"tensor": {"dtype": "DT_FLOAT", "tensorShape": {"dim": [{"size": "1"}, {"size": "1"}, {"size": "1344"}, {"size": "224"}]}}}}}, {"name": "StatefulPartitionedCall/sequential_3/EfficientNet/StatefulPartitionedCall/StatefulPartitionedCall/StatefulPartitionedCall/blocks_29/StatefulPartitionedCall/conv2d_1/Conv2D_bn_offset", "op": "Const", "attr": {"value": {"tensor": {"dtype": "DT_FLOAT", "tensorShape": {"dim": [{"size": "224"}]}}}, "dtype": {"type": "DT_FLOAT"}}}, {"name": "StatefulPartitionedCall/sequential_3/EfficientNet/StatefulPartitionedCall/StatefulPartitionedCall/StatefulPartitionedCall/blocks_30/StatefulPartitionedCall/conv2d/Conv2D_weights", "op": "Const", "attr": {"dtype": {"type": "DT_FLOAT"}, "value": {"tensor": {"dtype": "DT_FLOAT", "tensorShape": {"dim": [{"size": "1"}, {"size": "1"}, {"size": "224"}, {"size": "1344"}]}}}}}, {"name": "StatefulPartitionedCall/sequential_3/EfficientNet/StatefulPartitionedCall/StatefulPartitionedCall/StatefulPartitionedCall/blocks_30/StatefulPartitionedCall/conv2d/Conv2D_bn_offset", "op": "Const", "attr": {"dtype": {"type": "DT_FLOAT"}, "value": {"tensor": {"dtype": "DT_FLOAT", "tensorShape": {"dim": [{"size": "1344"}]}}}}}, {"name": "StatefulPartitionedCall/sequential_3/EfficientNet/StatefulPartitionedCall/StatefulPartitionedCall/StatefulPartitionedCall/blocks_30/StatefulPartitionedCall/depthwise_conv2d/depthwise_weights", "op": "Const", "attr": {"dtype": {"type": "DT_FLOAT"}, "value": {"tensor": {"dtype": "DT_FLOAT", "tensorShape": {"dim": [{"size": "3"}, {"size": "3"}, {"size": "1344"}, {"size": "1"}]}}}}}, {"name": "StatefulPartitionedCall/sequential_3/EfficientNet/StatefulPartitionedCall/StatefulPartitionedCall/StatefulPartitionedCall/blocks_30/StatefulPartitionedCall/depthwise_conv2d/depthwise_bn_offset", "op": "Const", "attr": {"dtype": {"type": "DT_FLOAT"}, "value": {"tensor": {"dtype": "DT_FLOAT", "tensorShape": {"dim": [{"size": "1344"}]}}}}}, {"name": "StatefulPartitionedCall/sequential_3/EfficientNet/StatefulPartitionedCall/StatefulPartitionedCall/StatefulPartitionedCall/blocks_71/StatefulPartitionedCall/conv2d_1/Conv2D_weights", "op": "Const", "attr": {"dtype": {"type": "DT_FLOAT"}, "value": {"tensor": {"dtype": "DT_FLOAT", "tensorShape": {"dim": [{"size": "1"}, {"size": "1"}, {"size": "2304"}, {"size": "384"}]}}}}}, {"name": "StatefulPartitionedCall/sequential_3/EfficientNet/StatefulPartitionedCall/StatefulPartitionedCall/StatefulPartitionedCall/blocks_78/StatefulPartitionedCall/depthwise_conv2d/depthwise_weights", "op": "Const", "attr": {"value": {"tensor": {"dtype": "DT_FLOAT", "tensorShape": {"dim": [{"size": "3"}, {"size": "3"}, {"size": "3840"}, {"size": "1"}]}}}, "dtype": {"type": "DT_FLOAT"}}}, {"name": "StatefulPartitionedCall/sequential_3/EfficientNet/StatefulPartitionedCall/StatefulPartitionedCall/StatefulPartitionedCall/blocks_30/StatefulPartitionedCall/conv2d_1/Conv2D_weights", "op": "Const", "attr": {"value": {"tensor": {"dtype": "DT_FLOAT", "tensorShape": {"dim": [{"size": "1"}, {"size": "1"}, {"size": "1344"}, {"size": "224"}]}}}, "dtype": {"type": "DT_FLOAT"}}}, {"name": "StatefulPartitionedCall/sequential_3/EfficientNet/StatefulPartitionedCall/StatefulPartitionedCall/StatefulPartitionedCall/blocks_71/StatefulPartitionedCall/conv2d_1/Conv2D_bn_offset", "op": "Const", "attr": {"value": {"tensor": {"dtype": "DT_FLOAT", "tensorShape": {"dim": [{"size": "384"}]}}}, "dtype": {"type": "DT_FLOAT"}}}, {"name": "StatefulPartitionedCall/sequential_3/EfficientNet/StatefulPartitionedCall/StatefulPartitionedCall/StatefulPartitionedCall/blocks_30/StatefulPartitionedCall/conv2d_1/Conv2D_bn_offset", "op": "Const", "attr": {"dtype": {"type": "DT_FLOAT"}, "value": {"tensor": {"dtype": "DT_FLOAT", "tensorShape": {"dim": [{"size": "224"}]}}}}}, {"name": "StatefulPartitionedCall/sequential_3/EfficientNet/StatefulPartitionedCall/StatefulPartitionedCall/StatefulPartitionedCall/blocks_31/StatefulPartitionedCall/conv2d/Conv2D_weights", "op": "Const", "attr": {"value": {"tensor": {"dtype": "DT_FLOAT", "tensorShape": {"dim": [{"size": "1"}, {"size": "1"}, {"size": "224"}, {"size": "1344"}]}}}, "dtype": {"type": "DT_FLOAT"}}}, {"name": "StatefulPartitionedCall/sequential_3/EfficientNet/StatefulPartitionedCall/StatefulPartitionedCall/StatefulPartitionedCall/blocks_31/StatefulPartitionedCall/conv2d/Conv2D_bn_offset", "op": "Const", "attr": {"value": {"tensor": {"dtype": "DT_FLOAT", "tensorShape": {"dim": [{"size": "1344"}]}}}, "dtype": {"type": "DT_FLOAT"}}}, {"name": "StatefulPartitionedCall/sequential_3/EfficientNet/StatefulPartitionedCall/StatefulPartitionedCall/StatefulPartitionedCall/blocks_31/StatefulPartitionedCall/depthwise_conv2d/depthwise_weights", "op": "Const", "attr": {"dtype": {"type": "DT_FLOAT"}, "value": {"tensor": {"dtype": "DT_FLOAT", "tensorShape": {"dim": [{"size": "3"}, {"size": "3"}, {"size": "1344"}, {"size": "1"}]}}}}}, {"name": "StatefulPartitionedCall/sequential_3/EfficientNet/StatefulPartitionedCall/StatefulPartitionedCall/StatefulPartitionedCall/blocks_31/StatefulPartitionedCall/depthwise_conv2d/depthwise_bn_offset", "op": "Const", "attr": {"dtype": {"type": "DT_FLOAT"}, "value": {"tensor": {"dtype": "DT_FLOAT", "tensorShape": {"dim": [{"size": "1344"}]}}}}}, {"name": "StatefulPartitionedCall/sequential_3/EfficientNet/StatefulPartitionedCall/StatefulPartitionedCall/StatefulPartitionedCall/blocks_72/StatefulPartitionedCall/conv2d/Conv2D_weights", "op": "Const", "attr": {"value": {"tensor": {"dtype": "DT_FLOAT", "tensorShape": {"dim": [{"size": "1"}, {"size": "1"}, {"size": "384"}, {"size": "2304"}]}}}, "dtype": {"type": "DT_FLOAT"}}}, {"name": "StatefulPartitionedCall/sequential_3/EfficientNet/StatefulPartitionedCall/StatefulPartitionedCall/StatefulPartitionedCall/blocks_31/StatefulPartitionedCall/conv2d_1/Conv2D_weights", "op": "Const", "attr": {"value": {"tensor": {"dtype": "DT_FLOAT", "tensorShape": {"dim": [{"size": "1"}, {"size": "1"}, {"size": "1344"}, {"size": "224"}]}}}, "dtype": {"type": "DT_FLOAT"}}}, {"name": "StatefulPartitionedCall/sequential_3/EfficientNet/StatefulPartitionedCall/StatefulPartitionedCall/StatefulPartitionedCall/blocks_31/StatefulPartitionedCall/conv2d_1/Conv2D_bn_offset", "op": "Const", "attr": {"dtype": {"type": "DT_FLOAT"}, "value": {"tensor": {"dtype": "DT_FLOAT", "tensorShape": {"dim": [{"size": "224"}]}}}}}, {"name": "StatefulPartitionedCall/sequential_3/EfficientNet/StatefulPartitionedCall/StatefulPartitionedCall/StatefulPartitionedCall/blocks_32/StatefulPartitionedCall/conv2d/Conv2D_weights", "op": "Const", "attr": {"value": {"tensor": {"dtype": "DT_FLOAT", "tensorShape": {"dim": [{"size": "1"}, {"size": "1"}, {"size": "224"}, {"size": "1344"}]}}}, "dtype": {"type": "DT_FLOAT"}}}, {"name": "StatefulPartitionedCall/sequential_3/EfficientNet/StatefulPartitionedCall/StatefulPartitionedCall/StatefulPartitionedCall/blocks_72/StatefulPartitionedCall/conv2d/Conv2D_bn_offset", "op": "Const", "attr": {"dtype": {"type": "DT_FLOAT"}, "value": {"tensor": {"dtype": "DT_FLOAT", "tensorShape": {"dim": [{"size": "2304"}]}}}}}, {"name": "StatefulPartitionedCall/sequential_3/EfficientNet/StatefulPartitionedCall/StatefulPartitionedCall/StatefulPartitionedCall/blocks_32/StatefulPartitionedCall/conv2d/Conv2D_bn_offset", "op": "Const", "attr": {"value": {"tensor": {"dtype": "DT_FLOAT", "tensorShape": {"dim": [{"size": "1344"}]}}}, "dtype": {"type": "DT_FLOAT"}}}, {"name": "StatefulPartitionedCall/sequential_3/EfficientNet/StatefulPartitionedCall/StatefulPartitionedCall/StatefulPartitionedCall/blocks_32/StatefulPartitionedCall/depthwise_conv2d/depthwise_weights", "op": "Const", "attr": {"dtype": {"type": "DT_FLOAT"}, "value": {"tensor": {"dtype": "DT_FLOAT", "tensorShape": {"dim": [{"size": "3"}, {"size": "3"}, {"size": "1344"}, {"size": "1"}]}}}}}, {"name": "StatefulPartitionedCall/sequential_3/EfficientNet/StatefulPartitionedCall/StatefulPartitionedCall/StatefulPartitionedCall/blocks_32/StatefulPartitionedCall/depthwise_conv2d/depthwise_bn_offset", "op": "Const", "attr": {"dtype": {"type": "DT_FLOAT"}, "value": {"tensor": {"dtype": "DT_FLOAT", "tensorShape": {"dim": [{"size": "1344"}]}}}}}, {"name": "StatefulPartitionedCall/sequential_3/EfficientNet/StatefulPartitionedCall/StatefulPartitionedCall/StatefulPartitionedCall/blocks_32/StatefulPartitionedCall/conv2d_1/Conv2D_weights", "op": "Const", "attr": {"value": {"tensor": {"dtype": "DT_FLOAT", "tensorShape": {"dim": [{"size": "1"}, {"size": "1"}, {"size": "1344"}, {"size": "224"}]}}}, "dtype": {"type": "DT_FLOAT"}}}, {"name": "StatefulPartitionedCall/sequential_3/EfficientNet/StatefulPartitionedCall/StatefulPartitionedCall/StatefulPartitionedCall/blocks_32/StatefulPartitionedCall/conv2d_1/Conv2D_bn_offset", "op": "Const", "attr": {"value": {"tensor": {"dtype": "DT_FLOAT", "tensorShape": {"dim": [{"size": "224"}]}}}, "dtype": {"type": "DT_FLOAT"}}}, {"name": "StatefulPartitionedCall/sequential_3/EfficientNet/StatefulPartitionedCall/StatefulPartitionedCall/StatefulPartitionedCall/blocks_33/StatefulPartitionedCall/conv2d/Conv2D_weights", "op": "Const", "attr": {"value": {"tensor": {"dtype": "DT_FLOAT", "tensorShape": {"dim": [{"size": "1"}, {"size": "1"}, {"size": "224"}, {"size": "1344"}]}}}, "dtype": {"type": "DT_FLOAT"}}}, {"name": "StatefulPartitionedCall/sequential_3/EfficientNet/StatefulPartitionedCall/StatefulPartitionedCall/StatefulPartitionedCall/blocks_72/StatefulPartitionedCall/depthwise_conv2d/depthwise_weights", "op": "Const", "attr": {"dtype": {"type": "DT_FLOAT"}, "value": {"tensor": {"dtype": "DT_FLOAT", "tensorShape": {"dim": [{"size": "3"}, {"size": "3"}, {"size": "2304"}, {"size": "1"}]}}}}}, {"name": "StatefulPartitionedCall/sequential_3/EfficientNet/StatefulPartitionedCall/StatefulPartitionedCall/StatefulPartitionedCall/blocks_33/StatefulPartitionedCall/conv2d/Conv2D_bn_offset", "op": "Const", "attr": {"dtype": {"type": "DT_FLOAT"}, "value": {"tensor": {"dtype": "DT_FLOAT", "tensorShape": {"dim": [{"size": "1344"}]}}}}}, {"name": "StatefulPartitionedCall/sequential_3/EfficientNet/StatefulPartitionedCall/StatefulPartitionedCall/StatefulPartitionedCall/blocks_33/StatefulPartitionedCall/depthwise_conv2d/depthwise_weights", "op": "Const", "attr": {"value": {"tensor": {"dtype": "DT_FLOAT", "tensorShape": {"dim": [{"size": "3"}, {"size": "3"}, {"size": "1344"}, {"size": "1"}]}}}, "dtype": {"type": "DT_FLOAT"}}}, {"name": "StatefulPartitionedCall/sequential_3/EfficientNet/StatefulPartitionedCall/StatefulPartitionedCall/StatefulPartitionedCall/blocks_33/StatefulPartitionedCall/depthwise_conv2d/depthwise_bn_offset", "op": "Const", "attr": {"value": {"tensor": {"dtype": "DT_FLOAT", "tensorShape": {"dim": [{"size": "1344"}]}}}, "dtype": {"type": "DT_FLOAT"}}}, {"name": "StatefulPartitionedCall/sequential_3/EfficientNet/StatefulPartitionedCall/StatefulPartitionedCall/StatefulPartitionedCall/blocks_72/StatefulPartitionedCall/depthwise_conv2d/depthwise_bn_offset", "op": "Const", "attr": {"dtype": {"type": "DT_FLOAT"}, "value": {"tensor": {"dtype": "DT_FLOAT", "tensorShape": {"dim": [{"size": "2304"}]}}}}}, {"name": "StatefulPartitionedCall/sequential_3/EfficientNet/StatefulPartitionedCall/StatefulPartitionedCall/StatefulPartitionedCall/blocks_33/StatefulPartitionedCall/conv2d_1/Conv2D_weights", "op": "Const", "attr": {"dtype": {"type": "DT_FLOAT"}, "value": {"tensor": {"dtype": "DT_FLOAT", "tensorShape": {"dim": [{"size": "1"}, {"size": "1"}, {"size": "1344"}, {"size": "224"}]}}}}}, {"name": "StatefulPartitionedCall/sequential_3/EfficientNet/StatefulPartitionedCall/StatefulPartitionedCall/StatefulPartitionedCall/blocks_33/StatefulPartitionedCall/conv2d_1/Conv2D_bn_offset", "op": "Const", "attr": {"dtype": {"type": "DT_FLOAT"}, "value": {"tensor": {"dtype": "DT_FLOAT", "tensorShape": {"dim": [{"size": "224"}]}}}}}, {"name": "StatefulPartitionedCall/sequential_3/EfficientNet/StatefulPartitionedCall/StatefulPartitionedCall/StatefulPartitionedCall/blocks_34/StatefulPartitionedCall/conv2d/Conv2D_weights", "op": "Const", "attr": {"dtype": {"type": "DT_FLOAT"}, "value": {"tensor": {"dtype": "DT_FLOAT", "tensorShape": {"dim": [{"size": "1"}, {"size": "1"}, {"size": "224"}, {"size": "1344"}]}}}}}, {"name": "StatefulPartitionedCall/sequential_3/EfficientNet/StatefulPartitionedCall/StatefulPartitionedCall/StatefulPartitionedCall/blocks_34/StatefulPartitionedCall/conv2d/Conv2D_bn_offset", "op": "Const", "attr": {"dtype": {"type": "DT_FLOAT"}, "value": {"tensor": {"dtype": "DT_FLOAT", "tensorShape": {"dim": [{"size": "1344"}]}}}}}, {"name": "StatefulPartitionedCall/sequential_3/EfficientNet/StatefulPartitionedCall/StatefulPartitionedCall/StatefulPartitionedCall/blocks_34/StatefulPartitionedCall/depthwise_conv2d/depthwise_weights", "op": "Const", "attr": {"dtype": {"type": "DT_FLOAT"}, "value": {"tensor": {"dtype": "DT_FLOAT", "tensorShape": {"dim": [{"size": "3"}, {"size": "3"}, {"size": "1344"}, {"size": "1"}]}}}}}, {"name": "StatefulPartitionedCall/sequential_3/EfficientNet/StatefulPartitionedCall/StatefulPartitionedCall/StatefulPartitionedCall/blocks_34/StatefulPartitionedCall/depthwise_conv2d/depthwise_bn_offset", "op": "Const", "attr": {"value": {"tensor": {"dtype": "DT_FLOAT", "tensorShape": {"dim": [{"size": "1344"}]}}}, "dtype": {"type": "DT_FLOAT"}}}, {"name": "StatefulPartitionedCall/sequential_3/EfficientNet/StatefulPartitionedCall/StatefulPartitionedCall/StatefulPartitionedCall/blocks_34/StatefulPartitionedCall/conv2d_1/Conv2D_weights", "op": "Const", "attr": {"value": {"tensor": {"dtype": "DT_FLOAT", "tensorShape": {"dim": [{"size": "1"}, {"size": "1"}, {"size": "1344"}, {"size": "224"}]}}}, "dtype": {"type": "DT_FLOAT"}}}, {"name": "StatefulPartitionedCall/sequential_3/EfficientNet/StatefulPartitionedCall/StatefulPartitionedCall/StatefulPartitionedCall/blocks_78/StatefulPartitionedCall/depthwise_conv2d/depthwise_bn_offset", "op": "Const", "attr": {"dtype": {"type": "DT_FLOAT"}, "value": {"tensor": {"dtype": "DT_FLOAT", "tensorShape": {"dim": [{"size": "3840"}]}}}}}, {"name": "StatefulPartitionedCall/sequential_3/EfficientNet/StatefulPartitionedCall/StatefulPartitionedCall/StatefulPartitionedCall/blocks_34/StatefulPartitionedCall/conv2d_1/Conv2D_bn_offset", "op": "Const", "attr": {"value": {"tensor": {"dtype": "DT_FLOAT", "tensorShape": {"dim": [{"size": "224"}]}}}, "dtype": {"type": "DT_FLOAT"}}}, {"name": "StatefulPartitionedCall/sequential_3/EfficientNet/StatefulPartitionedCall/StatefulPartitionedCall/StatefulPartitionedCall/blocks_35/StatefulPartitionedCall/conv2d/Conv2D_weights", "op": "Const", "attr": {"value": {"tensor": {"dtype": "DT_FLOAT", "tensorShape": {"dim": [{"size": "1"}, {"size": "1"}, {"size": "224"}, {"size": "1344"}]}}}, "dtype": {"type": "DT_FLOAT"}}}, {"name": "StatefulPartitionedCall/sequential_3/EfficientNet/StatefulPartitionedCall/StatefulPartitionedCall/StatefulPartitionedCall/blocks_35/StatefulPartitionedCall/conv2d/Conv2D_bn_offset", "op": "Const", "attr": {"dtype": {"type": "DT_FLOAT"}, "value": {"tensor": {"dtype": "DT_FLOAT", "tensorShape": {"dim": [{"size": "1344"}]}}}}}, {"name": "StatefulPartitionedCall/sequential_3/EfficientNet/StatefulPartitionedCall/StatefulPartitionedCall/StatefulPartitionedCall/blocks_35/StatefulPartitionedCall/depthwise_conv2d/depthwise_weights", "op": "Const", "attr": {"value": {"tensor": {"dtype": "DT_FLOAT", "tensorShape": {"dim": [{"size": "3"}, {"size": "3"}, {"size": "1344"}, {"size": "1"}]}}}, "dtype": {"type": "DT_FLOAT"}}}, {"name": "StatefulPartitionedCall/sequential_3/EfficientNet/StatefulPartitionedCall/StatefulPartitionedCall/StatefulPartitionedCall/blocks_35/StatefulPartitionedCall/depthwise_conv2d/depthwise_bn_offset", "op": "Const", "attr": {"value": {"tensor": {"dtype": "DT_FLOAT", "tensorShape": {"dim": [{"size": "1344"}]}}}, "dtype": {"type": "DT_FLOAT"}}}, {"name": "StatefulPartitionedCall/sequential_3/EfficientNet/StatefulPartitionedCall/StatefulPartitionedCall/StatefulPartitionedCall/blocks_35/StatefulPartitionedCall/conv2d_1/Conv2D_weights", "op": "Const", "attr": {"value": {"tensor": {"dtype": "DT_FLOAT", "tensorShape": {"dim": [{"size": "1"}, {"size": "1"}, {"size": "1344"}, {"size": "224"}]}}}, "dtype": {"type": "DT_FLOAT"}}}, {"name": "StatefulPartitionedCall/sequential_3/EfficientNet/StatefulPartitionedCall/StatefulPartitionedCall/StatefulPartitionedCall/blocks_35/StatefulPartitionedCall/conv2d_1/Conv2D_bn_offset", "op": "Const", "attr": {"dtype": {"type": "DT_FLOAT"}, "value": {"tensor": {"dtype": "DT_FLOAT", "tensorShape": {"dim": [{"size": "224"}]}}}}}, {"name": "StatefulPartitionedCall/sequential_3/EfficientNet/StatefulPartitionedCall/StatefulPartitionedCall/StatefulPartitionedCall/blocks_36/StatefulPartitionedCall/conv2d/Conv2D_weights", "op": "Const", "attr": {"value": {"tensor": {"dtype": "DT_FLOAT", "tensorShape": {"dim": [{"size": "1"}, {"size": "1"}, {"size": "224"}, {"size": "1344"}]}}}, "dtype": {"type": "DT_FLOAT"}}}, {"name": "StatefulPartitionedCall/sequential_3/EfficientNet/StatefulPartitionedCall/StatefulPartitionedCall/StatefulPartitionedCall/blocks_36/StatefulPartitionedCall/conv2d/Conv2D_bn_offset", "op": "Const", "attr": {"dtype": {"type": "DT_FLOAT"}, "value": {"tensor": {"dtype": "DT_FLOAT", "tensorShape": {"dim": [{"size": "1344"}]}}}}}, {"name": "StatefulPartitionedCall/sequential_3/EfficientNet/StatefulPartitionedCall/StatefulPartitionedCall/StatefulPartitionedCall/blocks_36/StatefulPartitionedCall/depthwise_conv2d/depthwise_weights", "op": "Const", "attr": {"value": {"tensor": {"dtype": "DT_FLOAT", "tensorShape": {"dim": [{"size": "3"}, {"size": "3"}, {"size": "1344"}, {"size": "1"}]}}}, "dtype": {"type": "DT_FLOAT"}}}, {"name": "StatefulPartitionedCall/sequential_3/EfficientNet/StatefulPartitionedCall/StatefulPartitionedCall/StatefulPartitionedCall/blocks_36/StatefulPartitionedCall/depthwise_conv2d/depthwise_bn_offset", "op": "Const", "attr": {"value": {"tensor": {"dtype": "DT_FLOAT", "tensorShape": {"dim": [{"size": "1344"}]}}}, "dtype": {"type": "DT_FLOAT"}}}, {"name": "StatefulPartitionedCall/sequential_3/EfficientNet/StatefulPartitionedCall/StatefulPartitionedCall/StatefulPartitionedCall/blocks_36/StatefulPartitionedCall/conv2d_1/Conv2D_weights", "op": "Const", "attr": {"dtype": {"type": "DT_FLOAT"}, "value": {"tensor": {"dtype": "DT_FLOAT", "tensorShape": {"dim": [{"size": "1"}, {"size": "1"}, {"size": "1344"}, {"size": "224"}]}}}}}, {"name": "StatefulPartitionedCall/sequential_3/EfficientNet/StatefulPartitionedCall/StatefulPartitionedCall/StatefulPartitionedCall/blocks_72/StatefulPartitionedCall/conv2d_1/Conv2D_weights", "op": "Const", "attr": {"dtype": {"type": "DT_FLOAT"}, "value": {"tensor": {"dtype": "DT_FLOAT", "tensorShape": {"dim": [{"size": "1"}, {"size": "1"}, {"size": "2304"}, {"size": "640"}]}}}}}, {"name": "StatefulPartitionedCall/sequential_3/EfficientNet/StatefulPartitionedCall/StatefulPartitionedCall/StatefulPartitionedCall/blocks_36/StatefulPartitionedCall/conv2d_1/Conv2D_bn_offset", "op": "Const", "attr": {"value": {"tensor": {"dtype": "DT_FLOAT", "tensorShape": {"dim": [{"size": "224"}]}}}, "dtype": {"type": "DT_FLOAT"}}}, {"name": "StatefulPartitionedCall/sequential_3/EfficientNet/StatefulPartitionedCall/StatefulPartitionedCall/StatefulPartitionedCall/blocks_37/StatefulPartitionedCall/conv2d/Conv2D_weights", "op": "Const", "attr": {"dtype": {"type": "DT_FLOAT"}, "value": {"tensor": {"dtype": "DT_FLOAT", "tensorShape": {"dim": [{"size": "1"}, {"size": "1"}, {"size": "224"}, {"size": "1344"}]}}}}}, {"name": "StatefulPartitionedCall/sequential_3/EfficientNet/StatefulPartitionedCall/StatefulPartitionedCall/StatefulPartitionedCall/blocks_37/StatefulPartitionedCall/conv2d/Conv2D_bn_offset", "op": "Const", "attr": {"value": {"tensor": {"dtype": "DT_FLOAT", "tensorShape": {"dim": [{"size": "1344"}]}}}, "dtype": {"type": "DT_FLOAT"}}}, {"name": "StatefulPartitionedCall/sequential_3/EfficientNet/StatefulPartitionedCall/StatefulPartitionedCall/StatefulPartitionedCall/blocks_37/StatefulPartitionedCall/depthwise_conv2d/depthwise_weights", "op": "Const", "attr": {"value": {"tensor": {"dtype": "DT_FLOAT", "tensorShape": {"dim": [{"size": "3"}, {"size": "3"}, {"size": "1344"}, {"size": "1"}]}}}, "dtype": {"type": "DT_FLOAT"}}}, {"name": "StatefulPartitionedCall/sequential_3/EfficientNet/StatefulPartitionedCall/StatefulPartitionedCall/StatefulPartitionedCall/blocks_37/StatefulPartitionedCall/depthwise_conv2d/depthwise_bn_offset", "op": "Const", "attr": {"dtype": {"type": "DT_FLOAT"}, "value": {"tensor": {"dtype": "DT_FLOAT", "tensorShape": {"dim": [{"size": "1344"}]}}}}}, {"name": "StatefulPartitionedCall/sequential_3/EfficientNet/StatefulPartitionedCall/StatefulPartitionedCall/StatefulPartitionedCall/blocks_72/StatefulPartitionedCall/conv2d_1/Conv2D_bn_offset", "op": "Const", "attr": {"value": {"tensor": {"dtype": "DT_FLOAT", "tensorShape": {"dim": [{"size": "640"}]}}}, "dtype": {"type": "DT_FLOAT"}}}, {"name": "StatefulPartitionedCall/sequential_3/EfficientNet/StatefulPartitionedCall/StatefulPartitionedCall/StatefulPartitionedCall/blocks_37/StatefulPartitionedCall/conv2d_1/Conv2D_weights", "op": "Const", "attr": {"value": {"tensor": {"dtype": "DT_FLOAT", "tensorShape": {"dim": [{"size": "1"}, {"size": "1"}, {"size": "1344"}, {"size": "224"}]}}}, "dtype": {"type": "DT_FLOAT"}}}, {"name": "StatefulPartitionedCall/sequential_3/EfficientNet/StatefulPartitionedCall/StatefulPartitionedCall/StatefulPartitionedCall/blocks_73/StatefulPartitionedCall/conv2d/Conv2D_weights", "op": "Const", "attr": {"value": {"tensor": {"dtype": "DT_FLOAT", "tensorShape": {"dim": [{"size": "1"}, {"size": "1"}, {"size": "640"}, {"size": "3840"}]}}}, "dtype": {"type": "DT_FLOAT"}}}, {"name": "StatefulPartitionedCall/sequential_3/EfficientNet/StatefulPartitionedCall/StatefulPartitionedCall/StatefulPartitionedCall/blocks_37/StatefulPartitionedCall/conv2d_1/Conv2D_bn_offset", "op": "Const", "attr": {"dtype": {"type": "DT_FLOAT"}, "value": {"tensor": {"dtype": "DT_FLOAT", "tensorShape": {"dim": [{"size": "224"}]}}}}}, {"name": "StatefulPartitionedCall/sequential_3/EfficientNet/StatefulPartitionedCall/StatefulPartitionedCall/StatefulPartitionedCall/blocks_38/StatefulPartitionedCall/conv2d/Conv2D_weights", "op": "Const", "attr": {"value": {"tensor": {"dtype": "DT_FLOAT", "tensorShape": {"dim": [{"size": "1"}, {"size": "1"}, {"size": "224"}, {"size": "1344"}]}}}, "dtype": {"type": "DT_FLOAT"}}}, {"name": "StatefulPartitionedCall/sequential_3/EfficientNet/StatefulPartitionedCall/StatefulPartitionedCall/StatefulPartitionedCall/blocks_38/StatefulPartitionedCall/conv2d/Conv2D_bn_offset", "op": "Const", "attr": {"dtype": {"type": "DT_FLOAT"}, "value": {"tensor": {"dtype": "DT_FLOAT", "tensorShape": {"dim": [{"size": "1344"}]}}}}}, {"name": "StatefulPartitionedCall/sequential_3/EfficientNet/StatefulPartitionedCall/StatefulPartitionedCall/StatefulPartitionedCall/blocks_38/StatefulPartitionedCall/depthwise_conv2d/depthwise_weights", "op": "Const", "attr": {"dtype": {"type": "DT_FLOAT"}, "value": {"tensor": {"dtype": "DT_FLOAT", "tensorShape": {"dim": [{"size": "3"}, {"size": "3"}, {"size": "1344"}, {"size": "1"}]}}}}}, {"name": "StatefulPartitionedCall/sequential_3/EfficientNet/StatefulPartitionedCall/StatefulPartitionedCall/StatefulPartitionedCall/blocks_38/StatefulPartitionedCall/depthwise_conv2d/depthwise_bn_offset", "op": "Const", "attr": {"dtype": {"type": "DT_FLOAT"}, "value": {"tensor": {"dtype": "DT_FLOAT", "tensorShape": {"dim": [{"size": "1344"}]}}}}}, {"name": "StatefulPartitionedCall/sequential_3/EfficientNet/StatefulPartitionedCall/StatefulPartitionedCall/StatefulPartitionedCall/blocks_73/StatefulPartitionedCall/conv2d/Conv2D_bn_offset", "op": "Const", "attr": {"dtype": {"type": "DT_FLOAT"}, "value": {"tensor": {"dtype": "DT_FLOAT", "tensorShape": {"dim": [{"size": "3840"}]}}}}}, {"name": "StatefulPartitionedCall/sequential_3/EfficientNet/StatefulPartitionedCall/StatefulPartitionedCall/StatefulPartitionedCall/blocks_38/StatefulPartitionedCall/conv2d_1/Conv2D_weights", "op": "Const", "attr": {"dtype": {"type": "DT_FLOAT"}, "value": {"tensor": {"dtype": "DT_FLOAT", "tensorShape": {"dim": [{"size": "1"}, {"size": "1"}, {"size": "1344"}, {"size": "224"}]}}}}}, {"name": "StatefulPartitionedCall/sequential_3/EfficientNet/StatefulPartitionedCall/StatefulPartitionedCall/StatefulPartitionedCall/blocks_38/StatefulPartitionedCall/conv2d_1/Conv2D_bn_offset", "op": "Const", "attr": {"value": {"tensor": {"dtype": "DT_FLOAT", "tensorShape": {"dim": [{"size": "224"}]}}}, "dtype": {"type": "DT_FLOAT"}}}, {"name": "StatefulPartitionedCall/sequential_3/EfficientNet/StatefulPartitionedCall/StatefulPartitionedCall/StatefulPartitionedCall/blocks_39/StatefulPartitionedCall/conv2d/Conv2D_weights", "op": "Const", "attr": {"dtype": {"type": "DT_FLOAT"}, "value": {"tensor": {"dtype": "DT_FLOAT", "tensorShape": {"dim": [{"size": "1"}, {"size": "1"}, {"size": "224"}, {"size": "1344"}]}}}}}, {"name": "StatefulPartitionedCall/sequential_3/EfficientNet/StatefulPartitionedCall/StatefulPartitionedCall/StatefulPartitionedCall/blocks_39/StatefulPartitionedCall/conv2d/Conv2D_bn_offset", "op": "Const", "attr": {"value": {"tensor": {"dtype": "DT_FLOAT", "tensorShape": {"dim": [{"size": "1344"}]}}}, "dtype": {"type": "DT_FLOAT"}}}, {"name": "StatefulPartitionedCall/sequential_3/EfficientNet/StatefulPartitionedCall/StatefulPartitionedCall/StatefulPartitionedCall/blocks_39/StatefulPartitionedCall/depthwise_conv2d/depthwise_weights", "op": "Const", "attr": {"value": {"tensor": {"dtype": "DT_FLOAT", "tensorShape": {"dim": [{"size": "3"}, {"size": "3"}, {"size": "1344"}, {"size": "1"}]}}}, "dtype": {"type": "DT_FLOAT"}}}, {"name": "StatefulPartitionedCall/sequential_3/EfficientNet/StatefulPartitionedCall/StatefulPartitionedCall/StatefulPartitionedCall/blocks_39/StatefulPartitionedCall/depthwise_conv2d/depthwise_bn_offset", "op": "Const", "attr": {"dtype": {"type": "DT_FLOAT"}, "value": {"tensor": {"dtype": "DT_FLOAT", "tensorShape": {"dim": [{"size": "1344"}]}}}}}, {"name": "StatefulPartitionedCall/sequential_3/EfficientNet/StatefulPartitionedCall/StatefulPartitionedCall/StatefulPartitionedCall/blocks_73/StatefulPartitionedCall/depthwise_conv2d/depthwise_weights", "op": "Const", "attr": {"value": {"tensor": {"dtype": "DT_FLOAT", "tensorShape": {"dim": [{"size": "3"}, {"size": "3"}, {"size": "3840"}, {"size": "1"}]}}}, "dtype": {"type": "DT_FLOAT"}}}, {"name": "StatefulPartitionedCall/sequential_3/EfficientNet/StatefulPartitionedCall/StatefulPartitionedCall/StatefulPartitionedCall/blocks_39/StatefulPartitionedCall/conv2d_1/Conv2D_weights", "op": "Const", "attr": {"value": {"tensor": {"dtype": "DT_FLOAT", "tensorShape": {"dim": [{"size": "1"}, {"size": "1"}, {"size": "1344"}, {"size": "224"}]}}}, "dtype": {"type": "DT_FLOAT"}}}, {"name": "StatefulPartitionedCall/sequential_3/EfficientNet/StatefulPartitionedCall/StatefulPartitionedCall/StatefulPartitionedCall/blocks_73/StatefulPartitionedCall/depthwise_conv2d/depthwise_bn_offset", "op": "Const", "attr": {"dtype": {"type": "DT_FLOAT"}, "value": {"tensor": {"dtype": "DT_FLOAT", "tensorShape": {"dim": [{"size": "3840"}]}}}}}, {"name": "StatefulPartitionedCall/sequential_3/EfficientNet/StatefulPartitionedCall/StatefulPartitionedCall/StatefulPartitionedCall/blocks_39/StatefulPartitionedCall/conv2d_1/Conv2D_bn_offset", "op": "Const", "attr": {"value": {"tensor": {"dtype": "DT_FLOAT", "tensorShape": {"dim": [{"size": "224"}]}}}, "dtype": {"type": "DT_FLOAT"}}}, {"name": "StatefulPartitionedCall/sequential_3/EfficientNet/StatefulPartitionedCall/StatefulPartitionedCall/StatefulPartitionedCall/blocks_40/StatefulPartitionedCall/conv2d/Conv2D_weights", "op": "Const", "attr": {"value": {"tensor": {"dtype": "DT_FLOAT", "tensorShape": {"dim": [{"size": "1"}, {"size": "1"}, {"size": "224"}, {"size": "1344"}]}}}, "dtype": {"type": "DT_FLOAT"}}}, {"name": "StatefulPartitionedCall/sequential_3/EfficientNet/StatefulPartitionedCall/StatefulPartitionedCall/StatefulPartitionedCall/blocks_40/StatefulPartitionedCall/conv2d/Conv2D_bn_offset", "op": "Const", "attr": {"value": {"tensor": {"dtype": "DT_FLOAT", "tensorShape": {"dim": [{"size": "1344"}]}}}, "dtype": {"type": "DT_FLOAT"}}}, {"name": "StatefulPartitionedCall/sequential_3/EfficientNet/StatefulPartitionedCall/StatefulPartitionedCall/StatefulPartitionedCall/blocks_40/StatefulPartitionedCall/depthwise_conv2d/depthwise_weights", "op": "Const", "attr": {"dtype": {"type": "DT_FLOAT"}, "value": {"tensor": {"dtype": "DT_FLOAT", "tensorShape": {"dim": [{"size": "3"}, {"size": "3"}, {"size": "1344"}, {"size": "1"}]}}}}}, {"name": "StatefulPartitionedCall/sequential_3/EfficientNet/StatefulPartitionedCall/StatefulPartitionedCall/StatefulPartitionedCall/blocks_40/StatefulPartitionedCall/depthwise_conv2d/depthwise_bn_offset", "op": "Const", "attr": {"value": {"tensor": {"dtype": "DT_FLOAT", "tensorShape": {"dim": [{"size": "1344"}]}}}, "dtype": {"type": "DT_FLOAT"}}}, {"name": "StatefulPartitionedCall/sequential_3/EfficientNet/StatefulPartitionedCall/StatefulPartitionedCall/StatefulPartitionedCall/blocks_40/StatefulPartitionedCall/conv2d_1/Conv2D_weights", "op": "Const", "attr": {"value": {"tensor": {"dtype": "DT_FLOAT", "tensorShape": {"dim": [{"size": "1"}, {"size": "1"}, {"size": "1344"}, {"size": "224"}]}}}, "dtype": {"type": "DT_FLOAT"}}}, {"name": "StatefulPartitionedCall/sequential_3/EfficientNet/StatefulPartitionedCall/StatefulPartitionedCall/StatefulPartitionedCall/blocks_40/StatefulPartitionedCall/conv2d_1/Conv2D_bn_offset", "op": "Const", "attr": {"value": {"tensor": {"dtype": "DT_FLOAT", "tensorShape": {"dim": [{"size": "224"}]}}}, "dtype": {"type": "DT_FLOAT"}}}, {"name": "StatefulPartitionedCall/sequential_3/EfficientNet/StatefulPartitionedCall/StatefulPartitionedCall/StatefulPartitionedCall/blocks_41/StatefulPartitionedCall/conv2d/Conv2D_weights", "op": "Const", "attr": {"value": {"tensor": {"dtype": "DT_FLOAT", "tensorShape": {"dim": [{"size": "1"}, {"size": "1"}, {"size": "224"}, {"size": "1344"}]}}}, "dtype": {"type": "DT_FLOAT"}}}, {"name": "StatefulPartitionedCall/sequential_3/EfficientNet/StatefulPartitionedCall/StatefulPartitionedCall/StatefulPartitionedCall/blocks_41/StatefulPartitionedCall/conv2d/Conv2D_bn_offset", "op": "Const", "attr": {"value": {"tensor": {"dtype": "DT_FLOAT", "tensorShape": {"dim": [{"size": "1344"}]}}}, "dtype": {"type": "DT_FLOAT"}}}, {"name": "StatefulPartitionedCall/sequential_3/EfficientNet/StatefulPartitionedCall/StatefulPartitionedCall/StatefulPartitionedCall/blocks_41/StatefulPartitionedCall/depthwise_conv2d/depthwise_weights", "op": "Const", "attr": {"value": {"tensor": {"dtype": "DT_FLOAT", "tensorShape": {"dim": [{"size": "3"}, {"size": "3"}, {"size": "1344"}, {"size": "1"}]}}}, "dtype": {"type": "DT_FLOAT"}}}, {"name": "StatefulPartitionedCall/sequential_3/EfficientNet/StatefulPartitionedCall/StatefulPartitionedCall/StatefulPartitionedCall/blocks_41/StatefulPartitionedCall/depthwise_conv2d/depthwise_bn_offset", "op": "Const", "attr": {"value": {"tensor": {"dtype": "DT_FLOAT", "tensorShape": {"dim": [{"size": "1344"}]}}}, "dtype": {"type": "DT_FLOAT"}}}, {"name": "StatefulPartitionedCall/sequential_3/EfficientNet/StatefulPartitionedCall/StatefulPartitionedCall/StatefulPartitionedCall/blocks_41/StatefulPartitionedCall/conv2d_1/Conv2D_weights", "op": "Const", "attr": {"dtype": {"type": "DT_FLOAT"}, "value": {"tensor": {"dtype": "DT_FLOAT", "tensorShape": {"dim": [{"size": "1"}, {"size": "1"}, {"size": "1344"}, {"size": "224"}]}}}}}, {"name": "StatefulPartitionedCall/sequential_3/EfficientNet/StatefulPartitionedCall/StatefulPartitionedCall/StatefulPartitionedCall/blocks_41/StatefulPartitionedCall/conv2d_1/Conv2D_bn_offset", "op": "Const", "attr": {"value": {"tensor": {"dtype": "DT_FLOAT", "tensorShape": {"dim": [{"size": "224"}]}}}, "dtype": {"type": "DT_FLOAT"}}}, {"name": "StatefulPartitionedCall/sequential_3/EfficientNet/StatefulPartitionedCall/StatefulPartitionedCall/StatefulPartitionedCall/blocks_42/StatefulPartitionedCall/conv2d/Conv2D_weights", "op": "Const", "attr": {"dtype": {"type": "DT_FLOAT"}, "value": {"tensor": {"dtype": "DT_FLOAT", "tensorShape": {"dim": [{"size": "1"}, {"size": "1"}, {"size": "224"}, {"size": "1344"}]}}}}}, {"name": "StatefulPartitionedCall/sequential_3/EfficientNet/StatefulPartitionedCall/StatefulPartitionedCall/StatefulPartitionedCall/blocks_42/StatefulPartitionedCall/conv2d/Conv2D_bn_offset", "op": "Const", "attr": {"value": {"tensor": {"dtype": "DT_FLOAT", "tensorShape": {"dim": [{"size": "1344"}]}}}, "dtype": {"type": "DT_FLOAT"}}}, {"name": "StatefulPartitionedCall/sequential_3/EfficientNet/StatefulPartitionedCall/StatefulPartitionedCall/StatefulPartitionedCall/blocks_42/StatefulPartitionedCall/depthwise_conv2d/depthwise_weights", "op": "Const", "attr": {"value": {"tensor": {"dtype": "DT_FLOAT", "tensorShape": {"dim": [{"size": "3"}, {"size": "3"}, {"size": "1344"}, {"size": "1"}]}}}, "dtype": {"type": "DT_FLOAT"}}}, {"name": "StatefulPartitionedCall/sequential_3/EfficientNet/StatefulPartitionedCall/StatefulPartitionedCall/StatefulPartitionedCall/blocks_42/StatefulPartitionedCall/depthwise_conv2d/depthwise_bn_offset", "op": "Const", "attr": {"dtype": {"type": "DT_FLOAT"}, "value": {"tensor": {"dtype": "DT_FLOAT", "tensorShape": {"dim": [{"size": "1344"}]}}}}}, {"name": "StatefulPartitionedCall/sequential_3/EfficientNet/StatefulPartitionedCall/StatefulPartitionedCall/StatefulPartitionedCall/blocks_42/StatefulPartitionedCall/conv2d_1/Conv2D_weights", "op": "Const", "attr": {"dtype": {"type": "DT_FLOAT"}, "value": {"tensor": {"dtype": "DT_FLOAT", "tensorShape": {"dim": [{"size": "1"}, {"size": "1"}, {"size": "1344"}, {"size": "224"}]}}}}}, {"name": "StatefulPartitionedCall/sequential_3/EfficientNet/StatefulPartitionedCall/StatefulPartitionedCall/StatefulPartitionedCall/blocks_42/StatefulPartitionedCall/conv2d_1/Conv2D_bn_offset", "op": "Const", "attr": {"dtype": {"type": "DT_FLOAT"}, "value": {"tensor": {"dtype": "DT_FLOAT", "tensorShape": {"dim": [{"size": "224"}]}}}}}, {"name": "StatefulPartitionedCall/sequential_3/EfficientNet/StatefulPartitionedCall/StatefulPartitionedCall/StatefulPartitionedCall/blocks_43/StatefulPartitionedCall/conv2d/Conv2D_weights", "op": "Const", "attr": {"value": {"tensor": {"dtype": "DT_FLOAT", "tensorShape": {"dim": [{"size": "1"}, {"size": "1"}, {"size": "224"}, {"size": "1344"}]}}}, "dtype": {"type": "DT_FLOAT"}}}, {"name": "StatefulPartitionedCall/sequential_3/EfficientNet/StatefulPartitionedCall/StatefulPartitionedCall/StatefulPartitionedCall/blocks_73/StatefulPartitionedCall/conv2d_1/Conv2D_weights", "op": "Const", "attr": {"value": {"tensor": {"dtype": "DT_FLOAT", "tensorShape": {"dim": [{"size": "1"}, {"size": "1"}, {"size": "3840"}, {"size": "640"}]}}}, "dtype": {"type": "DT_FLOAT"}}}, {"name": "StatefulPartitionedCall/sequential_3/EfficientNet/StatefulPartitionedCall/StatefulPartitionedCall/StatefulPartitionedCall/blocks_43/StatefulPartitionedCall/conv2d/Conv2D_bn_offset", "op": "Const", "attr": {"dtype": {"type": "DT_FLOAT"}, "value": {"tensor": {"dtype": "DT_FLOAT", "tensorShape": {"dim": [{"size": "1344"}]}}}}}, {"name": "StatefulPartitionedCall/sequential_3/EfficientNet/StatefulPartitionedCall/StatefulPartitionedCall/StatefulPartitionedCall/blocks_43/StatefulPartitionedCall/depthwise_conv2d/depthwise_weights", "op": "Const", "attr": {"value": {"tensor": {"dtype": "DT_FLOAT", "tensorShape": {"dim": [{"size": "3"}, {"size": "3"}, {"size": "1344"}, {"size": "1"}]}}}, "dtype": {"type": "DT_FLOAT"}}}, {"name": "StatefulPartitionedCall/sequential_3/EfficientNet/StatefulPartitionedCall/StatefulPartitionedCall/StatefulPartitionedCall/blocks_43/StatefulPartitionedCall/depthwise_conv2d/depthwise_bn_offset", "op": "Const", "attr": {"value": {"tensor": {"dtype": "DT_FLOAT", "tensorShape": {"dim": [{"size": "1344"}]}}}, "dtype": {"type": "DT_FLOAT"}}}, {"name": "StatefulPartitionedCall/sequential_3/EfficientNet/StatefulPartitionedCall/StatefulPartitionedCall/StatefulPartitionedCall/blocks_73/StatefulPartitionedCall/conv2d_1/Conv2D_bn_offset", "op": "Const", "attr": {"dtype": {"type": "DT_FLOAT"}, "value": {"tensor": {"dtype": "DT_FLOAT", "tensorShape": {"dim": [{"size": "640"}]}}}}}, {"name": "StatefulPartitionedCall/sequential_3/EfficientNet/StatefulPartitionedCall/StatefulPartitionedCall/StatefulPartitionedCall/blocks_43/StatefulPartitionedCall/conv2d_1/Conv2D_weights", "op": "Const", "attr": {"value": {"tensor": {"dtype": "DT_FLOAT", "tensorShape": {"dim": [{"size": "1"}, {"size": "1"}, {"size": "1344"}, {"size": "224"}]}}}, "dtype": {"type": "DT_FLOAT"}}}, {"name": "StatefulPartitionedCall/sequential_3/EfficientNet/StatefulPartitionedCall/StatefulPartitionedCall/StatefulPartitionedCall/blocks_43/StatefulPartitionedCall/conv2d_1/Conv2D_bn_offset", "op": "Const", "attr": {"value": {"tensor": {"dtype": "DT_FLOAT", "tensorShape": {"dim": [{"size": "224"}]}}}, "dtype": {"type": "DT_FLOAT"}}}, {"name": "StatefulPartitionedCall/sequential_3/EfficientNet/StatefulPartitionedCall/StatefulPartitionedCall/StatefulPartitionedCall/blocks_44/StatefulPartitionedCall/conv2d/Conv2D_weights", "op": "Const", "attr": {"dtype": {"type": "DT_FLOAT"}, "value": {"tensor": {"dtype": "DT_FLOAT", "tensorShape": {"dim": [{"size": "1"}, {"size": "1"}, {"size": "224"}, {"size": "1344"}]}}}}}, {"name": "StatefulPartitionedCall/sequential_3/EfficientNet/StatefulPartitionedCall/StatefulPartitionedCall/StatefulPartitionedCall/blocks_44/StatefulPartitionedCall/conv2d/Conv2D_bn_offset", "op": "Const", "attr": {"value": {"tensor": {"dtype": "DT_FLOAT", "tensorShape": {"dim": [{"size": "1344"}]}}}, "dtype": {"type": "DT_FLOAT"}}}, {"name": "StatefulPartitionedCall/sequential_3/EfficientNet/StatefulPartitionedCall/StatefulPartitionedCall/StatefulPartitionedCall/blocks_44/StatefulPartitionedCall/depthwise_conv2d/depthwise_weights", "op": "Const", "attr": {"dtype": {"type": "DT_FLOAT"}, "value": {"tensor": {"dtype": "DT_FLOAT", "tensorShape": {"dim": [{"size": "3"}, {"size": "3"}, {"size": "1344"}, {"size": "1"}]}}}}}, {"name": "StatefulPartitionedCall/sequential_3/EfficientNet/StatefulPartitionedCall/StatefulPartitionedCall/StatefulPartitionedCall/blocks_44/StatefulPartitionedCall/depthwise_conv2d/depthwise_bn_offset", "op": "Const", "attr": {"dtype": {"type": "DT_FLOAT"}, "value": {"tensor": {"dtype": "DT_FLOAT", "tensorShape": {"dim": [{"size": "1344"}]}}}}}, {"name": "StatefulPartitionedCall/sequential_3/EfficientNet/StatefulPartitionedCall/StatefulPartitionedCall/StatefulPartitionedCall/blocks_74/StatefulPartitionedCall/conv2d/Conv2D_weights", "op": "Const", "attr": {"value": {"tensor": {"dtype": "DT_FLOAT", "tensorShape": {"dim": [{"size": "1"}, {"size": "1"}, {"size": "640"}, {"size": "3840"}]}}}, "dtype": {"type": "DT_FLOAT"}}}, {"name": "StatefulPartitionedCall/sequential_3/EfficientNet/StatefulPartitionedCall/StatefulPartitionedCall/StatefulPartitionedCall/blocks_44/StatefulPartitionedCall/conv2d_1/Conv2D_weights", "op": "Const", "attr": {"value": {"tensor": {"dtype": "DT_FLOAT", "tensorShape": {"dim": [{"size": "1"}, {"size": "1"}, {"size": "1344"}, {"size": "224"}]}}}, "dtype": {"type": "DT_FLOAT"}}}, {"name": "StatefulPartitionedCall/sequential_3/EfficientNet/StatefulPartitionedCall/StatefulPartitionedCall/StatefulPartitionedCall/blocks_74/StatefulPartitionedCall/conv2d/Conv2D_bn_offset", "op": "Const", "attr": {"value": {"tensor": {"dtype": "DT_FLOAT", "tensorShape": {"dim": [{"size": "3840"}]}}}, "dtype": {"type": "DT_FLOAT"}}}, {"name": "StatefulPartitionedCall/sequential_3/EfficientNet/StatefulPartitionedCall/StatefulPartitionedCall/StatefulPartitionedCall/blocks_44/StatefulPartitionedCall/conv2d_1/Conv2D_bn_offset", "op": "Const", "attr": {"dtype": {"type": "DT_FLOAT"}, "value": {"tensor": {"dtype": "DT_FLOAT", "tensorShape": {"dim": [{"size": "224"}]}}}}}, {"name": "StatefulPartitionedCall/sequential_3/EfficientNet/StatefulPartitionedCall/StatefulPartitionedCall/StatefulPartitionedCall/blocks_45/StatefulPartitionedCall/conv2d/Conv2D_weights", "op": "Const", "attr": {"dtype": {"type": "DT_FLOAT"}, "value": {"tensor": {"dtype": "DT_FLOAT", "tensorShape": {"dim": [{"size": "1"}, {"size": "1"}, {"size": "224"}, {"size": "1344"}]}}}}}, {"name": "StatefulPartitionedCall/sequential_3/EfficientNet/StatefulPartitionedCall/StatefulPartitionedCall/StatefulPartitionedCall/blocks_45/StatefulPartitionedCall/conv2d/Conv2D_bn_offset", "op": "Const", "attr": {"value": {"tensor": {"dtype": "DT_FLOAT", "tensorShape": {"dim": [{"size": "1344"}]}}}, "dtype": {"type": "DT_FLOAT"}}}, {"name": "StatefulPartitionedCall/sequential_3/EfficientNet/StatefulPartitionedCall/StatefulPartitionedCall/StatefulPartitionedCall/blocks_45/StatefulPartitionedCall/depthwise_conv2d/depthwise_weights", "op": "Const", "attr": {"value": {"tensor": {"dtype": "DT_FLOAT", "tensorShape": {"dim": [{"size": "3"}, {"size": "3"}, {"size": "1344"}, {"size": "1"}]}}}, "dtype": {"type": "DT_FLOAT"}}}, {"name": "StatefulPartitionedCall/sequential_3/EfficientNet/StatefulPartitionedCall/StatefulPartitionedCall/StatefulPartitionedCall/blocks_45/StatefulPartitionedCall/depthwise_conv2d/depthwise_bn_offset", "op": "Const", "attr": {"value": {"tensor": {"dtype": "DT_FLOAT", "tensorShape": {"dim": [{"size": "1344"}]}}}, "dtype": {"type": "DT_FLOAT"}}}, {"name": "StatefulPartitionedCall/sequential_3/EfficientNet/StatefulPartitionedCall/StatefulPartitionedCall/StatefulPartitionedCall/blocks_45/StatefulPartitionedCall/conv2d_1/Conv2D_weights", "op": "Const", "attr": {"dtype": {"type": "DT_FLOAT"}, "value": {"tensor": {"dtype": "DT_FLOAT", "tensorShape": {"dim": [{"size": "1"}, {"size": "1"}, {"size": "1344"}, {"size": "224"}]}}}}}, {"name": "StatefulPartitionedCall/sequential_3/EfficientNet/StatefulPartitionedCall/StatefulPartitionedCall/StatefulPartitionedCall/blocks_74/StatefulPartitionedCall/depthwise_conv2d/depthwise_weights", "op": "Const", "attr": {"dtype": {"type": "DT_FLOAT"}, "value": {"tensor": {"dtype": "DT_FLOAT", "tensorShape": {"dim": [{"size": "3"}, {"size": "3"}, {"size": "3840"}, {"size": "1"}]}}}}}, {"name": "StatefulPartitionedCall/sequential_3/EfficientNet/StatefulPartitionedCall/StatefulPartitionedCall/StatefulPartitionedCall/blocks_45/StatefulPartitionedCall/conv2d_1/Conv2D_bn_offset", "op": "Const", "attr": {"value": {"tensor": {"dtype": "DT_FLOAT", "tensorShape": {"dim": [{"size": "224"}]}}}, "dtype": {"type": "DT_FLOAT"}}}, {"name": "StatefulPartitionedCall/sequential_3/EfficientNet/StatefulPartitionedCall/StatefulPartitionedCall/StatefulPartitionedCall/blocks_46/StatefulPartitionedCall/conv2d/Conv2D_weights", "op": "Const", "attr": {"dtype": {"type": "DT_FLOAT"}, "value": {"tensor": {"dtype": "DT_FLOAT", "tensorShape": {"dim": [{"size": "1"}, {"size": "1"}, {"size": "224"}, {"size": "1344"}]}}}}}, {"name": "StatefulPartitionedCall/sequential_3/EfficientNet/StatefulPartitionedCall/StatefulPartitionedCall/StatefulPartitionedCall/blocks_46/StatefulPartitionedCall/conv2d/Conv2D_bn_offset", "op": "Const", "attr": {"value": {"tensor": {"dtype": "DT_FLOAT", "tensorShape": {"dim": [{"size": "1344"}]}}}, "dtype": {"type": "DT_FLOAT"}}}, {"name": "StatefulPartitionedCall/sequential_3/EfficientNet/StatefulPartitionedCall/StatefulPartitionedCall/StatefulPartitionedCall/blocks_46/StatefulPartitionedCall/depthwise_conv2d/depthwise_weights", "op": "Const", "attr": {"value": {"tensor": {"dtype": "DT_FLOAT", "tensorShape": {"dim": [{"size": "3"}, {"size": "3"}, {"size": "1344"}, {"size": "1"}]}}}, "dtype": {"type": "DT_FLOAT"}}}, {"name": "StatefulPartitionedCall/sequential_3/EfficientNet/StatefulPartitionedCall/StatefulPartitionedCall/StatefulPartitionedCall/blocks_46/StatefulPartitionedCall/depthwise_conv2d/depthwise_bn_offset", "op": "Const", "attr": {"dtype": {"type": "DT_FLOAT"}, "value": {"tensor": {"dtype": "DT_FLOAT", "tensorShape": {"dim": [{"size": "1344"}]}}}}}, {"name": "StatefulPartitionedCall/sequential_3/EfficientNet/StatefulPartitionedCall/StatefulPartitionedCall/StatefulPartitionedCall/blocks_74/StatefulPartitionedCall/depthwise_conv2d/depthwise_bn_offset", "op": "Const", "attr": {"dtype": {"type": "DT_FLOAT"}, "value": {"tensor": {"dtype": "DT_FLOAT", "tensorShape": {"dim": [{"size": "3840"}]}}}}}, {"name": "StatefulPartitionedCall/sequential_3/EfficientNet/StatefulPartitionedCall/StatefulPartitionedCall/StatefulPartitionedCall/blocks_46/StatefulPartitionedCall/conv2d_1/Conv2D_weights", "op": "Const", "attr": {"value": {"tensor": {"dtype": "DT_FLOAT", "tensorShape": {"dim": [{"size": "1"}, {"size": "1"}, {"size": "1344"}, {"size": "224"}]}}}, "dtype": {"type": "DT_FLOAT"}}}, {"name": "StatefulPartitionedCall/sequential_3/EfficientNet/StatefulPartitionedCall/StatefulPartitionedCall/StatefulPartitionedCall/blocks_46/StatefulPartitionedCall/conv2d_1/Conv2D_bn_offset", "op": "Const", "attr": {"dtype": {"type": "DT_FLOAT"}, "value": {"tensor": {"dtype": "DT_FLOAT", "tensorShape": {"dim": [{"size": "224"}]}}}}}, {"name": "StatefulPartitionedCall/sequential_3/EfficientNet/StatefulPartitionedCall/StatefulPartitionedCall/StatefulPartitionedCall/blocks_47/StatefulPartitionedCall/conv2d/Conv2D_weights", "op": "Const", "attr": {"dtype": {"type": "DT_FLOAT"}, "value": {"tensor": {"dtype": "DT_FLOAT", "tensorShape": {"dim": [{"size": "1"}, {"size": "1"}, {"size": "224"}, {"size": "1344"}]}}}}}, {"name": "StatefulPartitionedCall/sequential_3/EfficientNet/StatefulPartitionedCall/StatefulPartitionedCall/StatefulPartitionedCall/blocks_47/StatefulPartitionedCall/conv2d/Conv2D_bn_offset", "op": "Const", "attr": {"value": {"tensor": {"dtype": "DT_FLOAT", "tensorShape": {"dim": [{"size": "1344"}]}}}, "dtype": {"type": "DT_FLOAT"}}}, {"name": "StatefulPartitionedCall/sequential_3/EfficientNet/StatefulPartitionedCall/StatefulPartitionedCall/StatefulPartitionedCall/blocks_47/StatefulPartitionedCall/depthwise_conv2d/depthwise_weights", "op": "Const", "attr": {"dtype": {"type": "DT_FLOAT"}, "value": {"tensor": {"dtype": "DT_FLOAT", "tensorShape": {"dim": [{"size": "3"}, {"size": "3"}, {"size": "1344"}, {"size": "1"}]}}}}}, {"name": "StatefulPartitionedCall/sequential_3/EfficientNet/StatefulPartitionedCall/StatefulPartitionedCall/StatefulPartitionedCall/blocks_47/StatefulPartitionedCall/depthwise_conv2d/depthwise_bn_offset", "op": "Const", "attr": {"dtype": {"type": "DT_FLOAT"}, "value": {"tensor": {"dtype": "DT_FLOAT", "tensorShape": {"dim": [{"size": "1344"}]}}}}}, {"name": "StatefulPartitionedCall/sequential_3/EfficientNet/StatefulPartitionedCall/StatefulPartitionedCall/StatefulPartitionedCall/blocks_47/StatefulPartitionedCall/conv2d_1/Conv2D_weights", "op": "Const", "attr": {"value": {"tensor": {"dtype": "DT_FLOAT", "tensorShape": {"dim": [{"size": "1"}, {"size": "1"}, {"size": "1344"}, {"size": "384"}]}}}, "dtype": {"type": "DT_FLOAT"}}}, {"name": "StatefulPartitionedCall/sequential_3/EfficientNet/StatefulPartitionedCall/StatefulPartitionedCall/StatefulPartitionedCall/blocks_47/StatefulPartitionedCall/conv2d_1/Conv2D_bn_offset", "op": "Const", "attr": {"value": {"tensor": {"dtype": "DT_FLOAT", "tensorShape": {"dim": [{"size": "384"}]}}}, "dtype": {"type": "DT_FLOAT"}}}, {"name": "StatefulPartitionedCall/sequential_3/EfficientNet/StatefulPartitionedCall/StatefulPartitionedCall/StatefulPartitionedCall/blocks_48/StatefulPartitionedCall/conv2d/Conv2D_weights", "op": "Const", "attr": {"value": {"tensor": {"dtype": "DT_FLOAT", "tensorShape": {"dim": [{"size": "1"}, {"size": "1"}, {"size": "384"}, {"size": "2304"}]}}}, "dtype": {"type": "DT_FLOAT"}}}, {"name": "StatefulPartitionedCall/sequential_3/EfficientNet/StatefulPartitionedCall/StatefulPartitionedCall/StatefulPartitionedCall/blocks_48/StatefulPartitionedCall/conv2d/Conv2D_bn_offset", "op": "Const", "attr": {"value": {"tensor": {"dtype": "DT_FLOAT", "tensorShape": {"dim": [{"size": "2304"}]}}}, "dtype": {"type": "DT_FLOAT"}}}, {"name": "StatefulPartitionedCall/sequential_3/EfficientNet/StatefulPartitionedCall/StatefulPartitionedCall/StatefulPartitionedCall/blocks_48/StatefulPartitionedCall/depthwise_conv2d/depthwise_weights", "op": "Const", "attr": {"value": {"tensor": {"dtype": "DT_FLOAT", "tensorShape": {"dim": [{"size": "3"}, {"size": "3"}, {"size": "2304"}, {"size": "1"}]}}}, "dtype": {"type": "DT_FLOAT"}}}, {"name": "StatefulPartitionedCall/sequential_3/EfficientNet/StatefulPartitionedCall/StatefulPartitionedCall/StatefulPartitionedCall/blocks_48/StatefulPartitionedCall/depthwise_conv2d/depthwise_bn_offset", "op": "Const", "attr": {"value": {"tensor": {"dtype": "DT_FLOAT", "tensorShape": {"dim": [{"size": "2304"}]}}}, "dtype": {"type": "DT_FLOAT"}}}, {"name": "StatefulPartitionedCall/sequential_3/EfficientNet/StatefulPartitionedCall/StatefulPartitionedCall/StatefulPartitionedCall/blocks_48/StatefulPartitionedCall/conv2d_1/Conv2D_weights", "op": "Const", "attr": {"dtype": {"type": "DT_FLOAT"}, "value": {"tensor": {"dtype": "DT_FLOAT", "tensorShape": {"dim": [{"size": "1"}, {"size": "1"}, {"size": "2304"}, {"size": "384"}]}}}}}, {"name": "StatefulPartitionedCall/sequential_3/EfficientNet/StatefulPartitionedCall/StatefulPartitionedCall/StatefulPartitionedCall/blocks_48/StatefulPartitionedCall/conv2d_1/Conv2D_bn_offset", "op": "Const", "attr": {"dtype": {"type": "DT_FLOAT"}, "value": {"tensor": {"dtype": "DT_FLOAT", "tensorShape": {"dim": [{"size": "384"}]}}}}}, {"name": "StatefulPartitionedCall/sequential_3/EfficientNet/StatefulPartitionedCall/StatefulPartitionedCall/StatefulPartitionedCall/blocks_49/StatefulPartitionedCall/conv2d/Conv2D_weights", "op": "Const", "attr": {"dtype": {"type": "DT_FLOAT"}, "value": {"tensor": {"dtype": "DT_FLOAT", "tensorShape": {"dim": [{"size": "1"}, {"size": "1"}, {"size": "384"}, {"size": "2304"}]}}}}}, {"name": "StatefulPartitionedCall/sequential_3/EfficientNet/StatefulPartitionedCall/StatefulPartitionedCall/StatefulPartitionedCall/blocks_49/StatefulPartitionedCall/conv2d/Conv2D_bn_offset", "op": "Const", "attr": {"dtype": {"type": "DT_FLOAT"}, "value": {"tensor": {"dtype": "DT_FLOAT", "tensorShape": {"dim": [{"size": "2304"}]}}}}}, {"name": "StatefulPartitionedCall/sequential_3/EfficientNet/StatefulPartitionedCall/StatefulPartitionedCall/StatefulPartitionedCall/blocks_49/StatefulPartitionedCall/depthwise_conv2d/depthwise_weights", "op": "Const", "attr": {"dtype": {"type": "DT_FLOAT"}, "value": {"tensor": {"dtype": "DT_FLOAT", "tensorShape": {"dim": [{"size": "3"}, {"size": "3"}, {"size": "2304"}, {"size": "1"}]}}}}}, {"name": "StatefulPartitionedCall/sequential_3/EfficientNet/StatefulPartitionedCall/StatefulPartitionedCall/StatefulPartitionedCall/blocks_49/StatefulPartitionedCall/depthwise_conv2d/depthwise_bn_offset", "op": "Const", "attr": {"value": {"tensor": {"dtype": "DT_FLOAT", "tensorShape": {"dim": [{"size": "2304"}]}}}, "dtype": {"type": "DT_FLOAT"}}}, {"name": "StatefulPartitionedCall/sequential_3/EfficientNet/StatefulPartitionedCall/StatefulPartitionedCall/StatefulPartitionedCall/blocks_74/StatefulPartitionedCall/conv2d_1/Conv2D_weights", "op": "Const", "attr": {"value": {"tensor": {"dtype": "DT_FLOAT", "tensorShape": {"dim": [{"size": "1"}, {"size": "1"}, {"size": "3840"}, {"size": "640"}]}}}, "dtype": {"type": "DT_FLOAT"}}}, {"name": "StatefulPartitionedCall/sequential_3/EfficientNet/StatefulPartitionedCall/StatefulPartitionedCall/StatefulPartitionedCall/blocks_49/StatefulPartitionedCall/conv2d_1/Conv2D_weights", "op": "Const", "attr": {"value": {"tensor": {"dtype": "DT_FLOAT", "tensorShape": {"dim": [{"size": "1"}, {"size": "1"}, {"size": "2304"}, {"size": "384"}]}}}, "dtype": {"type": "DT_FLOAT"}}}, {"name": "StatefulPartitionedCall/sequential_3/EfficientNet/StatefulPartitionedCall/StatefulPartitionedCall/StatefulPartitionedCall/blocks_49/StatefulPartitionedCall/conv2d_1/Conv2D_bn_offset", "op": "Const", "attr": {"value": {"tensor": {"dtype": "DT_FLOAT", "tensorShape": {"dim": [{"size": "384"}]}}}, "dtype": {"type": "DT_FLOAT"}}}, {"name": "StatefulPartitionedCall/sequential_3/EfficientNet/StatefulPartitionedCall/StatefulPartitionedCall/StatefulPartitionedCall/blocks_50/StatefulPartitionedCall/conv2d/Conv2D_weights", "op": "Const", "attr": {"dtype": {"type": "DT_FLOAT"}, "value": {"tensor": {"dtype": "DT_FLOAT", "tensorShape": {"dim": [{"size": "1"}, {"size": "1"}, {"size": "384"}, {"size": "2304"}]}}}}}, {"name": "StatefulPartitionedCall/sequential_3/EfficientNet/StatefulPartitionedCall/StatefulPartitionedCall/StatefulPartitionedCall/blocks_74/StatefulPartitionedCall/conv2d_1/Conv2D_bn_offset", "op": "Const", "attr": {"value": {"tensor": {"dtype": "DT_FLOAT", "tensorShape": {"dim": [{"size": "640"}]}}}, "dtype": {"type": "DT_FLOAT"}}}, {"name": "StatefulPartitionedCall/sequential_3/EfficientNet/StatefulPartitionedCall/StatefulPartitionedCall/StatefulPartitionedCall/blocks_50/StatefulPartitionedCall/conv2d/Conv2D_bn_offset", "op": "Const", "attr": {"value": {"tensor": {"dtype": "DT_FLOAT", "tensorShape": {"dim": [{"size": "2304"}]}}}, "dtype": {"type": "DT_FLOAT"}}}, {"name": "StatefulPartitionedCall/sequential_3/EfficientNet/StatefulPartitionedCall/StatefulPartitionedCall/StatefulPartitionedCall/blocks_50/StatefulPartitionedCall/depthwise_conv2d/depthwise_weights", "op": "Const", "attr": {"dtype": {"type": "DT_FLOAT"}, "value": {"tensor": {"dtype": "DT_FLOAT", "tensorShape": {"dim": [{"size": "3"}, {"size": "3"}, {"size": "2304"}, {"size": "1"}]}}}}}, {"name": "StatefulPartitionedCall/sequential_3/EfficientNet/StatefulPartitionedCall/StatefulPartitionedCall/StatefulPartitionedCall/blocks_50/StatefulPartitionedCall/depthwise_conv2d/depthwise_bn_offset", "op": "Const", "attr": {"dtype": {"type": "DT_FLOAT"}, "value": {"tensor": {"dtype": "DT_FLOAT", "tensorShape": {"dim": [{"size": "2304"}]}}}}}, {"name": "StatefulPartitionedCall/sequential_3/EfficientNet/StatefulPartitionedCall/StatefulPartitionedCall/StatefulPartitionedCall/blocks_50/StatefulPartitionedCall/conv2d_1/Conv2D_weights", "op": "Const", "attr": {"dtype": {"type": "DT_FLOAT"}, "value": {"tensor": {"dtype": "DT_FLOAT", "tensorShape": {"dim": [{"size": "1"}, {"size": "1"}, {"size": "2304"}, {"size": "384"}]}}}}}, {"name": "StatefulPartitionedCall/sequential_3/EfficientNet/StatefulPartitionedCall/StatefulPartitionedCall/StatefulPartitionedCall/blocks_75/StatefulPartitionedCall/conv2d/Conv2D_weights", "op": "Const", "attr": {"dtype": {"type": "DT_FLOAT"}, "value": {"tensor": {"dtype": "DT_FLOAT", "tensorShape": {"dim": [{"size": "1"}, {"size": "1"}, {"size": "640"}, {"size": "3840"}]}}}}}, {"name": "StatefulPartitionedCall/sequential_3/EfficientNet/StatefulPartitionedCall/StatefulPartitionedCall/StatefulPartitionedCall/blocks_50/StatefulPartitionedCall/conv2d_1/Conv2D_bn_offset", "op": "Const", "attr": {"dtype": {"type": "DT_FLOAT"}, "value": {"tensor": {"dtype": "DT_FLOAT", "tensorShape": {"dim": [{"size": "384"}]}}}}}, {"name": "StatefulPartitionedCall/sequential_3/EfficientNet/StatefulPartitionedCall/StatefulPartitionedCall/StatefulPartitionedCall/blocks_51/StatefulPartitionedCall/conv2d/Conv2D_weights", "op": "Const", "attr": {"value": {"tensor": {"dtype": "DT_FLOAT", "tensorShape": {"dim": [{"size": "1"}, {"size": "1"}, {"size": "384"}, {"size": "2304"}]}}}, "dtype": {"type": "DT_FLOAT"}}}, {"name": "StatefulPartitionedCall/sequential_3/EfficientNet/StatefulPartitionedCall/StatefulPartitionedCall/StatefulPartitionedCall/blocks_51/StatefulPartitionedCall/conv2d/Conv2D_bn_offset", "op": "Const", "attr": {"dtype": {"type": "DT_FLOAT"}, "value": {"tensor": {"dtype": "DT_FLOAT", "tensorShape": {"dim": [{"size": "2304"}]}}}}}, {"name": "StatefulPartitionedCall/sequential_3/EfficientNet/StatefulPartitionedCall/StatefulPartitionedCall/StatefulPartitionedCall/blocks_51/StatefulPartitionedCall/depthwise_conv2d/depthwise_weights", "op": "Const", "attr": {"value": {"tensor": {"dtype": "DT_FLOAT", "tensorShape": {"dim": [{"size": "3"}, {"size": "3"}, {"size": "2304"}, {"size": "1"}]}}}, "dtype": {"type": "DT_FLOAT"}}}, {"name": "StatefulPartitionedCall/sequential_3/EfficientNet/StatefulPartitionedCall/StatefulPartitionedCall/StatefulPartitionedCall/blocks_51/StatefulPartitionedCall/depthwise_conv2d/depthwise_bn_offset", "op": "Const", "attr": {"dtype": {"type": "DT_FLOAT"}, "value": {"tensor": {"dtype": "DT_FLOAT", "tensorShape": {"dim": [{"size": "2304"}]}}}}}, {"name": "StatefulPartitionedCall/sequential_3/EfficientNet/StatefulPartitionedCall/StatefulPartitionedCall/StatefulPartitionedCall/blocks_75/StatefulPartitionedCall/conv2d/Conv2D_bn_offset", "op": "Const", "attr": {"value": {"tensor": {"dtype": "DT_FLOAT", "tensorShape": {"dim": [{"size": "3840"}]}}}, "dtype": {"type": "DT_FLOAT"}}}, {"name": "StatefulPartitionedCall/sequential_3/EfficientNet/StatefulPartitionedCall/StatefulPartitionedCall/StatefulPartitionedCall/blocks_51/StatefulPartitionedCall/conv2d_1/Conv2D_weights", "op": "Const", "attr": {"value": {"tensor": {"dtype": "DT_FLOAT", "tensorShape": {"dim": [{"size": "1"}, {"size": "1"}, {"size": "2304"}, {"size": "384"}]}}}, "dtype": {"type": "DT_FLOAT"}}}, {"name": "StatefulPartitionedCall/sequential_3/EfficientNet/StatefulPartitionedCall/StatefulPartitionedCall/StatefulPartitionedCall/blocks_51/StatefulPartitionedCall/conv2d_1/Conv2D_bn_offset", "op": "Const", "attr": {"dtype": {"type": "DT_FLOAT"}, "value": {"tensor": {"dtype": "DT_FLOAT", "tensorShape": {"dim": [{"size": "384"}]}}}}}, {"name": "StatefulPartitionedCall/sequential_3/EfficientNet/StatefulPartitionedCall/StatefulPartitionedCall/StatefulPartitionedCall/blocks_52/StatefulPartitionedCall/conv2d/Conv2D_weights", "op": "Const", "attr": {"value": {"tensor": {"dtype": "DT_FLOAT", "tensorShape": {"dim": [{"size": "1"}, {"size": "1"}, {"size": "384"}, {"size": "2304"}]}}}, "dtype": {"type": "DT_FLOAT"}}}, {"name": "StatefulPartitionedCall/sequential_3/EfficientNet/StatefulPartitionedCall/StatefulPartitionedCall/StatefulPartitionedCall/blocks_52/StatefulPartitionedCall/conv2d/Conv2D_bn_offset", "op": "Const", "attr": {"value": {"tensor": {"dtype": "DT_FLOAT", "tensorShape": {"dim": [{"size": "2304"}]}}}, "dtype": {"type": "DT_FLOAT"}}}, {"name": "StatefulPartitionedCall/sequential_3/EfficientNet/StatefulPartitionedCall/StatefulPartitionedCall/StatefulPartitionedCall/blocks_52/StatefulPartitionedCall/depthwise_conv2d/depthwise_weights", "op": "Const", "attr": {"dtype": {"type": "DT_FLOAT"}, "value": {"tensor": {"dtype": "DT_FLOAT", "tensorShape": {"dim": [{"size": "3"}, {"size": "3"}, {"size": "2304"}, {"size": "1"}]}}}}}, {"name": "StatefulPartitionedCall/sequential_3/EfficientNet/StatefulPartitionedCall/StatefulPartitionedCall/StatefulPartitionedCall/blocks_52/StatefulPartitionedCall/depthwise_conv2d/depthwise_bn_offset", "op": "Const", "attr": {"value": {"tensor": {"dtype": "DT_FLOAT", "tensorShape": {"dim": [{"size": "2304"}]}}}, "dtype": {"type": "DT_FLOAT"}}}, {"name": "StatefulPartitionedCall/sequential_3/EfficientNet/StatefulPartitionedCall/StatefulPartitionedCall/StatefulPartitionedCall/blocks_75/StatefulPartitionedCall/depthwise_conv2d/depthwise_weights", "op": "Const", "attr": {"value": {"tensor": {"dtype": "DT_FLOAT", "tensorShape": {"dim": [{"size": "3"}, {"size": "3"}, {"size": "3840"}, {"size": "1"}]}}}, "dtype": {"type": "DT_FLOAT"}}}, {"name": "StatefulPartitionedCall/sequential_3/EfficientNet/StatefulPartitionedCall/StatefulPartitionedCall/StatefulPartitionedCall/blocks_52/StatefulPartitionedCall/conv2d_1/Conv2D_weights", "op": "Const", "attr": {"dtype": {"type": "DT_FLOAT"}, "value": {"tensor": {"dtype": "DT_FLOAT", "tensorShape": {"dim": [{"size": "1"}, {"size": "1"}, {"size": "2304"}, {"size": "384"}]}}}}}, {"name": "StatefulPartitionedCall/sequential_3/EfficientNet/StatefulPartitionedCall/StatefulPartitionedCall/StatefulPartitionedCall/blocks_75/StatefulPartitionedCall/depthwise_conv2d/depthwise_bn_offset", "op": "Const", "attr": {"value": {"tensor": {"dtype": "DT_FLOAT", "tensorShape": {"dim": [{"size": "3840"}]}}}, "dtype": {"type": "DT_FLOAT"}}}, {"name": "StatefulPartitionedCall/sequential_3/EfficientNet/StatefulPartitionedCall/StatefulPartitionedCall/StatefulPartitionedCall/blocks_52/StatefulPartitionedCall/conv2d_1/Conv2D_bn_offset", "op": "Const", "attr": {"value": {"tensor": {"dtype": "DT_FLOAT", "tensorShape": {"dim": [{"size": "384"}]}}}, "dtype": {"type": "DT_FLOAT"}}}, {"name": "StatefulPartitionedCall/sequential_3/EfficientNet/StatefulPartitionedCall/StatefulPartitionedCall/StatefulPartitionedCall/blocks_53/StatefulPartitionedCall/conv2d/Conv2D_weights", "op": "Const", "attr": {"dtype": {"type": "DT_FLOAT"}, "value": {"tensor": {"dtype": "DT_FLOAT", "tensorShape": {"dim": [{"size": "1"}, {"size": "1"}, {"size": "384"}, {"size": "2304"}]}}}}}, {"name": "StatefulPartitionedCall/sequential_3/EfficientNet/StatefulPartitionedCall/StatefulPartitionedCall/StatefulPartitionedCall/blocks_53/StatefulPartitionedCall/conv2d/Conv2D_bn_offset", "op": "Const", "attr": {"dtype": {"type": "DT_FLOAT"}, "value": {"tensor": {"dtype": "DT_FLOAT", "tensorShape": {"dim": [{"size": "2304"}]}}}}}, {"name": "StatefulPartitionedCall/sequential_3/EfficientNet/StatefulPartitionedCall/StatefulPartitionedCall/StatefulPartitionedCall/blocks_53/StatefulPartitionedCall/depthwise_conv2d/depthwise_weights", "op": "Const", "attr": {"dtype": {"type": "DT_FLOAT"}, "value": {"tensor": {"dtype": "DT_FLOAT", "tensorShape": {"dim": [{"size": "3"}, {"size": "3"}, {"size": "2304"}, {"size": "1"}]}}}}}, {"name": "StatefulPartitionedCall/sequential_3/EfficientNet/StatefulPartitionedCall/StatefulPartitionedCall/StatefulPartitionedCall/blocks_53/StatefulPartitionedCall/depthwise_conv2d/depthwise_bn_offset", "op": "Const", "attr": {"dtype": {"type": "DT_FLOAT"}, "value": {"tensor": {"dtype": "DT_FLOAT", "tensorShape": {"dim": [{"size": "2304"}]}}}}}, {"name": "StatefulPartitionedCall/sequential_3/EfficientNet/StatefulPartitionedCall/StatefulPartitionedCall/StatefulPartitionedCall/blocks_53/StatefulPartitionedCall/conv2d_1/Conv2D_weights", "op": "Const", "attr": {"value": {"tensor": {"dtype": "DT_FLOAT", "tensorShape": {"dim": [{"size": "1"}, {"size": "1"}, {"size": "2304"}, {"size": "384"}]}}}, "dtype": {"type": "DT_FLOAT"}}}, {"name": "StatefulPartitionedCall/sequential_3/EfficientNet/StatefulPartitionedCall/StatefulPartitionedCall/StatefulPartitionedCall/blocks_53/StatefulPartitionedCall/conv2d_1/Conv2D_bn_offset", "op": "Const", "attr": {"dtype": {"type": "DT_FLOAT"}, "value": {"tensor": {"dtype": "DT_FLOAT", "tensorShape": {"dim": [{"size": "384"}]}}}}}, {"name": "StatefulPartitionedCall/sequential_3/EfficientNet/StatefulPartitionedCall/StatefulPartitionedCall/StatefulPartitionedCall/blocks_54/StatefulPartitionedCall/conv2d/Conv2D_weights", "op": "Const", "attr": {"dtype": {"type": "DT_FLOAT"}, "value": {"tensor": {"dtype": "DT_FLOAT", "tensorShape": {"dim": [{"size": "1"}, {"size": "1"}, {"size": "384"}, {"size": "2304"}]}}}}}, {"name": "StatefulPartitionedCall/sequential_3/EfficientNet/StatefulPartitionedCall/StatefulPartitionedCall/StatefulPartitionedCall/blocks_54/StatefulPartitionedCall/conv2d/Conv2D_bn_offset", "op": "Const", "attr": {"value": {"tensor": {"dtype": "DT_FLOAT", "tensorShape": {"dim": [{"size": "2304"}]}}}, "dtype": {"type": "DT_FLOAT"}}}, {"name": "StatefulPartitionedCall/sequential_3/EfficientNet/StatefulPartitionedCall/StatefulPartitionedCall/StatefulPartitionedCall/blocks_54/StatefulPartitionedCall/depthwise_conv2d/depthwise_weights", "op": "Const", "attr": {"value": {"tensor": {"dtype": "DT_FLOAT", "tensorShape": {"dim": [{"size": "3"}, {"size": "3"}, {"size": "2304"}, {"size": "1"}]}}}, "dtype": {"type": "DT_FLOAT"}}}, {"name": "StatefulPartitionedCall/sequential_3/EfficientNet/StatefulPartitionedCall/StatefulPartitionedCall/StatefulPartitionedCall/blocks_54/StatefulPartitionedCall/depthwise_conv2d/depthwise_bn_offset", "op": "Const", "attr": {"value": {"tensor": {"dtype": "DT_FLOAT", "tensorShape": {"dim": [{"size": "2304"}]}}}, "dtype": {"type": "DT_FLOAT"}}}, {"name": "StatefulPartitionedCall/sequential_3/EfficientNet/StatefulPartitionedCall/StatefulPartitionedCall/StatefulPartitionedCall/blocks_54/StatefulPartitionedCall/conv2d_1/Conv2D_weights", "op": "Const", "attr": {"dtype": {"type": "DT_FLOAT"}, "value": {"tensor": {"dtype": "DT_FLOAT", "tensorShape": {"dim": [{"size": "1"}, {"size": "1"}, {"size": "2304"}, {"size": "384"}]}}}}}, {"name": "StatefulPartitionedCall/sequential_3/EfficientNet/StatefulPartitionedCall/StatefulPartitionedCall/StatefulPartitionedCall/blocks_54/StatefulPartitionedCall/conv2d_1/Conv2D_bn_offset", "op": "Const", "attr": {"dtype": {"type": "DT_FLOAT"}, "value": {"tensor": {"dtype": "DT_FLOAT", "tensorShape": {"dim": [{"size": "384"}]}}}}}, {"name": "StatefulPartitionedCall/sequential_3/EfficientNet/StatefulPartitionedCall/StatefulPartitionedCall/StatefulPartitionedCall/blocks_55/StatefulPartitionedCall/conv2d/Conv2D_weights", "op": "Const", "attr": {"value": {"tensor": {"dtype": "DT_FLOAT", "tensorShape": {"dim": [{"size": "1"}, {"size": "1"}, {"size": "384"}, {"size": "2304"}]}}}, "dtype": {"type": "DT_FLOAT"}}}, {"name": "StatefulPartitionedCall/sequential_3/EfficientNet/StatefulPartitionedCall/StatefulPartitionedCall/StatefulPartitionedCall/blocks_78/StatefulPartitionedCall/conv2d_1/Conv2D_weights", "op": "Const", "attr": {"dtype": {"type": "DT_FLOAT"}, "value": {"tensor": {"dtype": "DT_FLOAT", "tensorShape": {"dim": [{"size": "1"}, {"size": "1"}, {"size": "3840"}, {"size": "640"}]}}}}}, {"name": "StatefulPartitionedCall/sequential_3/EfficientNet/StatefulPartitionedCall/StatefulPartitionedCall/StatefulPartitionedCall/blocks_55/StatefulPartitionedCall/conv2d/Conv2D_bn_offset", "op": "Const", "attr": {"dtype": {"type": "DT_FLOAT"}, "value": {"tensor": {"dtype": "DT_FLOAT", "tensorShape": {"dim": [{"size": "2304"}]}}}}}, {"name": "StatefulPartitionedCall/sequential_3/EfficientNet/StatefulPartitionedCall/StatefulPartitionedCall/StatefulPartitionedCall/blocks_55/StatefulPartitionedCall/depthwise_conv2d/depthwise_weights", "op": "Const", "attr": {"dtype": {"type": "DT_FLOAT"}, "value": {"tensor": {"dtype": "DT_FLOAT", "tensorShape": {"dim": [{"size": "3"}, {"size": "3"}, {"size": "2304"}, {"size": "1"}]}}}}}, {"name": "StatefulPartitionedCall/sequential_3/EfficientNet/StatefulPartitionedCall/StatefulPartitionedCall/StatefulPartitionedCall/blocks_55/StatefulPartitionedCall/depthwise_conv2d/depthwise_bn_offset", "op": "Const", "attr": {"value": {"tensor": {"dtype": "DT_FLOAT", "tensorShape": {"dim": [{"size": "2304"}]}}}, "dtype": {"type": "DT_FLOAT"}}}, {"name": "StatefulPartitionedCall/sequential_3/EfficientNet/StatefulPartitionedCall/StatefulPartitionedCall/StatefulPartitionedCall/blocks_55/StatefulPartitionedCall/conv2d_1/Conv2D_weights", "op": "Const", "attr": {"value": {"tensor": {"dtype": "DT_FLOAT", "tensorShape": {"dim": [{"size": "1"}, {"size": "1"}, {"size": "2304"}, {"size": "384"}]}}}, "dtype": {"type": "DT_FLOAT"}}}, {"name": "StatefulPartitionedCall/sequential_3/EfficientNet/StatefulPartitionedCall/StatefulPartitionedCall/StatefulPartitionedCall/blocks_55/StatefulPartitionedCall/conv2d_1/Conv2D_bn_offset", "op": "Const", "attr": {"value": {"tensor": {"dtype": "DT_FLOAT", "tensorShape": {"dim": [{"size": "384"}]}}}, "dtype": {"type": "DT_FLOAT"}}}, {"name": "StatefulPartitionedCall/sequential_3/EfficientNet/StatefulPartitionedCall/StatefulPartitionedCall/StatefulPartitionedCall/blocks_56/StatefulPartitionedCall/conv2d/Conv2D_weights", "op": "Const", "attr": {"value": {"tensor": {"dtype": "DT_FLOAT", "tensorShape": {"dim": [{"size": "1"}, {"size": "1"}, {"size": "384"}, {"size": "2304"}]}}}, "dtype": {"type": "DT_FLOAT"}}}, {"name": "StatefulPartitionedCall/sequential_3/EfficientNet/StatefulPartitionedCall/StatefulPartitionedCall/StatefulPartitionedCall/blocks_75/StatefulPartitionedCall/conv2d_1/Conv2D_weights", "op": "Const", "attr": {"dtype": {"type": "DT_FLOAT"}, "value": {"tensor": {"dtype": "DT_FLOAT", "tensorShape": {"dim": [{"size": "1"}, {"size": "1"}, {"size": "3840"}, {"size": "640"}]}}}}}, {"name": "StatefulPartitionedCall/sequential_3/EfficientNet/StatefulPartitionedCall/StatefulPartitionedCall/StatefulPartitionedCall/blocks_56/StatefulPartitionedCall/conv2d/Conv2D_bn_offset", "op": "Const", "attr": {"dtype": {"type": "DT_FLOAT"}, "value": {"tensor": {"dtype": "DT_FLOAT", "tensorShape": {"dim": [{"size": "2304"}]}}}}}, {"name": "StatefulPartitionedCall/sequential_3/EfficientNet/StatefulPartitionedCall/StatefulPartitionedCall/StatefulPartitionedCall/blocks_56/StatefulPartitionedCall/depthwise_conv2d/depthwise_weights", "op": "Const", "attr": {"dtype": {"type": "DT_FLOAT"}, "value": {"tensor": {"dtype": "DT_FLOAT", "tensorShape": {"dim": [{"size": "3"}, {"size": "3"}, {"size": "2304"}, {"size": "1"}]}}}}}, {"name": "StatefulPartitionedCall/sequential_3/EfficientNet/StatefulPartitionedCall/StatefulPartitionedCall/StatefulPartitionedCall/blocks_56/StatefulPartitionedCall/depthwise_conv2d/depthwise_bn_offset", "op": "Const", "attr": {"value": {"tensor": {"dtype": "DT_FLOAT", "tensorShape": {"dim": [{"size": "2304"}]}}}, "dtype": {"type": "DT_FLOAT"}}}, {"name": "StatefulPartitionedCall/sequential_3/EfficientNet/StatefulPartitionedCall/StatefulPartitionedCall/StatefulPartitionedCall/blocks_75/StatefulPartitionedCall/conv2d_1/Conv2D_bn_offset", "op": "Const", "attr": {"value": {"tensor": {"dtype": "DT_FLOAT", "tensorShape": {"dim": [{"size": "640"}]}}}, "dtype": {"type": "DT_FLOAT"}}}, {"name": "StatefulPartitionedCall/sequential_3/EfficientNet/StatefulPartitionedCall/StatefulPartitionedCall/StatefulPartitionedCall/blocks_56/StatefulPartitionedCall/conv2d_1/Conv2D_weights", "op": "Const", "attr": {"value": {"tensor": {"dtype": "DT_FLOAT", "tensorShape": {"dim": [{"size": "1"}, {"size": "1"}, {"size": "2304"}, {"size": "384"}]}}}, "dtype": {"type": "DT_FLOAT"}}}, {"name": "StatefulPartitionedCall/sequential_3/EfficientNet/StatefulPartitionedCall/StatefulPartitionedCall/StatefulPartitionedCall/blocks_56/StatefulPartitionedCall/conv2d_1/Conv2D_bn_offset", "op": "Const", "attr": {"value": {"tensor": {"dtype": "DT_FLOAT", "tensorShape": {"dim": [{"size": "384"}]}}}, "dtype": {"type": "DT_FLOAT"}}}, {"name": "StatefulPartitionedCall/sequential_3/EfficientNet/StatefulPartitionedCall/StatefulPartitionedCall/StatefulPartitionedCall/blocks_57/StatefulPartitionedCall/conv2d/Conv2D_weights", "op": "Const", "attr": {"value": {"tensor": {"dtype": "DT_FLOAT", "tensorShape": {"dim": [{"size": "1"}, {"size": "1"}, {"size": "384"}, {"size": "2304"}]}}}, "dtype": {"type": "DT_FLOAT"}}}, {"name": "StatefulPartitionedCall/sequential_3/EfficientNet/StatefulPartitionedCall/StatefulPartitionedCall/StatefulPartitionedCall/blocks_57/StatefulPartitionedCall/conv2d/Conv2D_bn_offset", "op": "Const", "attr": {"dtype": {"type": "DT_FLOAT"}, "value": {"tensor": {"dtype": "DT_FLOAT", "tensorShape": {"dim": [{"size": "2304"}]}}}}}, {"name": "StatefulPartitionedCall/sequential_3/EfficientNet/StatefulPartitionedCall/StatefulPartitionedCall/StatefulPartitionedCall/blocks_57/StatefulPartitionedCall/depthwise_conv2d/depthwise_weights", "op": "Const", "attr": {"dtype": {"type": "DT_FLOAT"}, "value": {"tensor": {"dtype": "DT_FLOAT", "tensorShape": {"dim": [{"size": "3"}, {"size": "3"}, {"size": "2304"}, {"size": "1"}]}}}}}, {"name": "StatefulPartitionedCall/sequential_3/EfficientNet/StatefulPartitionedCall/StatefulPartitionedCall/StatefulPartitionedCall/blocks_57/StatefulPartitionedCall/depthwise_conv2d/depthwise_bn_offset", "op": "Const", "attr": {"value": {"tensor": {"dtype": "DT_FLOAT", "tensorShape": {"dim": [{"size": "2304"}]}}}, "dtype": {"type": "DT_FLOAT"}}}, {"name": "StatefulPartitionedCall/sequential_3/EfficientNet/StatefulPartitionedCall/StatefulPartitionedCall/StatefulPartitionedCall/blocks_76/StatefulPartitionedCall/conv2d/Conv2D_weights", "op": "Const", "attr": {"dtype": {"type": "DT_FLOAT"}, "value": {"tensor": {"dtype": "DT_FLOAT", "tensorShape": {"dim": [{"size": "1"}, {"size": "1"}, {"size": "640"}, {"size": "3840"}]}}}}}, {"name": "StatefulPartitionedCall/sequential_3/EfficientNet/StatefulPartitionedCall/StatefulPartitionedCall/StatefulPartitionedCall/blocks_78/StatefulPartitionedCall/conv2d_1/Conv2D_bn_offset", "op": "Const", "attr": {"value": {"tensor": {"dtype": "DT_FLOAT", "tensorShape": {"dim": [{"size": "640"}]}}}, "dtype": {"type": "DT_FLOAT"}}}, {"name": "StatefulPartitionedCall/sequential_3/EfficientNet/StatefulPartitionedCall/StatefulPartitionedCall/StatefulPartitionedCall/blocks_57/StatefulPartitionedCall/conv2d_1/Conv2D_weights", "op": "Const", "attr": {"dtype": {"type": "DT_FLOAT"}, "value": {"tensor": {"dtype": "DT_FLOAT", "tensorShape": {"dim": [{"size": "1"}, {"size": "1"}, {"size": "2304"}, {"size": "384"}]}}}}}, {"name": "StatefulPartitionedCall/sequential_3/EfficientNet/StatefulPartitionedCall/StatefulPartitionedCall/StatefulPartitionedCall/blocks_76/StatefulPartitionedCall/conv2d/Conv2D_bn_offset", "op": "Const", "attr": {"dtype": {"type": "DT_FLOAT"}, "value": {"tensor": {"dtype": "DT_FLOAT", "tensorShape": {"dim": [{"size": "3840"}]}}}}}, {"name": "StatefulPartitionedCall/sequential_3/EfficientNet/StatefulPartitionedCall/StatefulPartitionedCall/StatefulPartitionedCall/blocks_57/StatefulPartitionedCall/conv2d_1/Conv2D_bn_offset", "op": "Const", "attr": {"dtype": {"type": "DT_FLOAT"}, "value": {"tensor": {"dtype": "DT_FLOAT", "tensorShape": {"dim": [{"size": "384"}]}}}}}, {"name": "StatefulPartitionedCall/sequential_3/EfficientNet/StatefulPartitionedCall/StatefulPartitionedCall/StatefulPartitionedCall/blocks_58/StatefulPartitionedCall/conv2d/Conv2D_weights", "op": "Const", "attr": {"dtype": {"type": "DT_FLOAT"}, "value": {"tensor": {"dtype": "DT_FLOAT", "tensorShape": {"dim": [{"size": "1"}, {"size": "1"}, {"size": "384"}, {"size": "2304"}]}}}}}, {"name": "StatefulPartitionedCall/sequential_3/EfficientNet/StatefulPartitionedCall/StatefulPartitionedCall/StatefulPartitionedCall/blocks_58/StatefulPartitionedCall/conv2d/Conv2D_bn_offset", "op": "Const", "attr": {"value": {"tensor": {"dtype": "DT_FLOAT", "tensorShape": {"dim": [{"size": "2304"}]}}}, "dtype": {"type": "DT_FLOAT"}}}, {"name": "StatefulPartitionedCall/sequential_3/EfficientNet/StatefulPartitionedCall/StatefulPartitionedCall/StatefulPartitionedCall/blocks_58/StatefulPartitionedCall/depthwise_conv2d/depthwise_weights", "op": "Const", "attr": {"value": {"tensor": {"dtype": "DT_FLOAT", "tensorShape": {"dim": [{"size": "3"}, {"size": "3"}, {"size": "2304"}, {"size": "1"}]}}}, "dtype": {"type": "DT_FLOAT"}}}, {"name": "StatefulPartitionedCall/sequential_3/EfficientNet/StatefulPartitionedCall/StatefulPartitionedCall/StatefulPartitionedCall/blocks_58/StatefulPartitionedCall/depthwise_conv2d/depthwise_bn_offset", "op": "Const", "attr": {"dtype": {"type": "DT_FLOAT"}, "value": {"tensor": {"dtype": "DT_FLOAT", "tensorShape": {"dim": [{"size": "2304"}]}}}}}, {"name": "StatefulPartitionedCall/sequential_3/EfficientNet/StatefulPartitionedCall/StatefulPartitionedCall/StatefulPartitionedCall/blocks_58/StatefulPartitionedCall/conv2d_1/Conv2D_weights", "op": "Const", "attr": {"dtype": {"type": "DT_FLOAT"}, "value": {"tensor": {"dtype": "DT_FLOAT", "tensorShape": {"dim": [{"size": "1"}, {"size": "1"}, {"size": "2304"}, {"size": "384"}]}}}}}, {"name": "StatefulPartitionedCall/sequential_3/EfficientNet/StatefulPartitionedCall/StatefulPartitionedCall/StatefulPartitionedCall/blocks_76/StatefulPartitionedCall/depthwise_conv2d/depthwise_weights", "op": "Const", "attr": {"dtype": {"type": "DT_FLOAT"}, "value": {"tensor": {"dtype": "DT_FLOAT", "tensorShape": {"dim": [{"size": "3"}, {"size": "3"}, {"size": "3840"}, {"size": "1"}]}}}}}, {"name": "StatefulPartitionedCall/sequential_3/EfficientNet/StatefulPartitionedCall/StatefulPartitionedCall/StatefulPartitionedCall/blocks_58/StatefulPartitionedCall/conv2d_1/Conv2D_bn_offset", "op": "Const", "attr": {"value": {"tensor": {"dtype": "DT_FLOAT", "tensorShape": {"dim": [{"size": "384"}]}}}, "dtype": {"type": "DT_FLOAT"}}}, {"name": "StatefulPartitionedCall/sequential_3/EfficientNet/StatefulPartitionedCall/StatefulPartitionedCall/StatefulPartitionedCall/blocks_59/StatefulPartitionedCall/conv2d/Conv2D_weights", "op": "Const", "attr": {"value": {"tensor": {"dtype": "DT_FLOAT", "tensorShape": {"dim": [{"size": "1"}, {"size": "1"}, {"size": "384"}, {"size": "2304"}]}}}, "dtype": {"type": "DT_FLOAT"}}}, {"name": "StatefulPartitionedCall/sequential_3/EfficientNet/StatefulPartitionedCall/StatefulPartitionedCall/StatefulPartitionedCall/blocks_59/StatefulPartitionedCall/conv2d/Conv2D_bn_offset", "op": "Const", "attr": {"value": {"tensor": {"dtype": "DT_FLOAT", "tensorShape": {"dim": [{"size": "2304"}]}}}, "dtype": {"type": "DT_FLOAT"}}}, {"name": "StatefulPartitionedCall/sequential_3/EfficientNet/StatefulPartitionedCall/StatefulPartitionedCall/StatefulPartitionedCall/blocks_59/StatefulPartitionedCall/depthwise_conv2d/depthwise_weights", "op": "Const", "attr": {"value": {"tensor": {"dtype": "DT_FLOAT", "tensorShape": {"dim": [{"size": "3"}, {"size": "3"}, {"size": "2304"}, {"size": "1"}]}}}, "dtype": {"type": "DT_FLOAT"}}}, {"name": "StatefulPartitionedCall/sequential_3/EfficientNet/StatefulPartitionedCall/StatefulPartitionedCall/StatefulPartitionedCall/blocks_59/StatefulPartitionedCall/depthwise_conv2d/depthwise_bn_offset", "op": "Const", "attr": {"dtype": {"type": "DT_FLOAT"}, "value": {"tensor": {"dtype": "DT_FLOAT", "tensorShape": {"dim": [{"size": "2304"}]}}}}}, {"name": "StatefulPartitionedCall/sequential_3/EfficientNet/StatefulPartitionedCall/StatefulPartitionedCall/StatefulPartitionedCall/blocks_76/StatefulPartitionedCall/depthwise_conv2d/depthwise_bn_offset", "op": "Const", "attr": {"value": {"tensor": {"dtype": "DT_FLOAT", "tensorShape": {"dim": [{"size": "3840"}]}}}, "dtype": {"type": "DT_FLOAT"}}}, {"name": "StatefulPartitionedCall/sequential_3/EfficientNet/StatefulPartitionedCall/StatefulPartitionedCall/StatefulPartitionedCall/blocks_59/StatefulPartitionedCall/conv2d_1/Conv2D_weights", "op": "Const", "attr": {"value": {"tensor": {"dtype": "DT_FLOAT", "tensorShape": {"dim": [{"size": "1"}, {"size": "1"}, {"size": "2304"}, {"size": "384"}]}}}, "dtype": {"type": "DT_FLOAT"}}}, {"name": "StatefulPartitionedCall/sequential_3/EfficientNet/StatefulPartitionedCall/StatefulPartitionedCall/StatefulPartitionedCall/blocks_59/StatefulPartitionedCall/conv2d_1/Conv2D_bn_offset", "op": "Const", "attr": {"value": {"tensor": {"dtype": "DT_FLOAT", "tensorShape": {"dim": [{"size": "384"}]}}}, "dtype": {"type": "DT_FLOAT"}}}, {"name": "StatefulPartitionedCall/sequential_3/EfficientNet/StatefulPartitionedCall/StatefulPartitionedCall/StatefulPartitionedCall/blocks_60/StatefulPartitionedCall/conv2d/Conv2D_weights", "op": "Const", "attr": {"dtype": {"type": "DT_FLOAT"}, "value": {"tensor": {"dtype": "DT_FLOAT", "tensorShape": {"dim": [{"size": "1"}, {"size": "1"}, {"size": "384"}, {"size": "2304"}]}}}}}, {"name": "StatefulPartitionedCall/sequential_3/EfficientNet/StatefulPartitionedCall/StatefulPartitionedCall/StatefulPartitionedCall/blocks_60/StatefulPartitionedCall/conv2d/Conv2D_bn_offset", "op": "Const", "attr": {"dtype": {"type": "DT_FLOAT"}, "value": {"tensor": {"dtype": "DT_FLOAT", "tensorShape": {"dim": [{"size": "2304"}]}}}}}, {"name": "StatefulPartitionedCall/sequential_3/EfficientNet/StatefulPartitionedCall/StatefulPartitionedCall/StatefulPartitionedCall/blocks_60/StatefulPartitionedCall/depthwise_conv2d/depthwise_weights", "op": "Const", "attr": {"value": {"tensor": {"dtype": "DT_FLOAT", "tensorShape": {"dim": [{"size": "3"}, {"size": "3"}, {"size": "2304"}, {"size": "1"}]}}}, "dtype": {"type": "DT_FLOAT"}}}, {"name": "StatefulPartitionedCall/sequential_3/EfficientNet/StatefulPartitionedCall/StatefulPartitionedCall/StatefulPartitionedCall/blocks_60/StatefulPartitionedCall/depthwise_conv2d/depthwise_bn_offset", "op": "Const", "attr": {"dtype": {"type": "DT_FLOAT"}, "value": {"tensor": {"dtype": "DT_FLOAT", "tensorShape": {"dim": [{"size": "2304"}]}}}}}, {"name": "StatefulPartitionedCall/sequential_3/EfficientNet/StatefulPartitionedCall/StatefulPartitionedCall/StatefulPartitionedCall/blocks_60/StatefulPartitionedCall/conv2d_1/Conv2D_weights", "op": "Const", "attr": {"value": {"tensor": {"dtype": "DT_FLOAT", "tensorShape": {"dim": [{"size": "1"}, {"size": "1"}, {"size": "2304"}, {"size": "384"}]}}}, "dtype": {"type": "DT_FLOAT"}}}, {"name": "StatefulPartitionedCall/sequential_3/EfficientNet/StatefulPartitionedCall/StatefulPartitionedCall/StatefulPartitionedCall/blocks_60/StatefulPartitionedCall/conv2d_1/Conv2D_bn_offset", "op": "Const", "attr": {"value": {"tensor": {"dtype": "DT_FLOAT", "tensorShape": {"dim": [{"size": "384"}]}}}, "dtype": {"type": "DT_FLOAT"}}}, {"name": "StatefulPartitionedCall/sequential_3/EfficientNet/StatefulPartitionedCall/StatefulPartitionedCall/StatefulPartitionedCall/blocks_61/StatefulPartitionedCall/conv2d/Conv2D_weights", "op": "Const", "attr": {"dtype": {"type": "DT_FLOAT"}, "value": {"tensor": {"dtype": "DT_FLOAT", "tensorShape": {"dim": [{"size": "1"}, {"size": "1"}, {"size": "384"}, {"size": "2304"}]}}}}}, {"name": "StatefulPartitionedCall/sequential_3/EfficientNet/StatefulPartitionedCall/StatefulPartitionedCall/StatefulPartitionedCall/blocks_61/StatefulPartitionedCall/conv2d/Conv2D_bn_offset", "op": "Const", "attr": {"value": {"tensor": {"dtype": "DT_FLOAT", "tensorShape": {"dim": [{"size": "2304"}]}}}, "dtype": {"type": "DT_FLOAT"}}}, {"name": "StatefulPartitionedCall/sequential_3/EfficientNet/StatefulPartitionedCall/StatefulPartitionedCall/StatefulPartitionedCall/blocks_61/StatefulPartitionedCall/depthwise_conv2d/depthwise_weights", "op": "Const", "attr": {"dtype": {"type": "DT_FLOAT"}, "value": {"tensor": {"dtype": "DT_FLOAT", "tensorShape": {"dim": [{"size": "3"}, {"size": "3"}, {"size": "2304"}, {"size": "1"}]}}}}}, {"name": "StatefulPartitionedCall/sequential_3/EfficientNet/StatefulPartitionedCall/StatefulPartitionedCall/StatefulPartitionedCall/blocks_61/StatefulPartitionedCall/depthwise_conv2d/depthwise_bn_offset", "op": "Const", "attr": {"dtype": {"type": "DT_FLOAT"}, "value": {"tensor": {"dtype": "DT_FLOAT", "tensorShape": {"dim": [{"size": "2304"}]}}}}}, {"name": "StatefulPartitionedCall/sequential_3/EfficientNet/StatefulPartitionedCall/StatefulPartitionedCall/StatefulPartitionedCall/blocks_61/StatefulPartitionedCall/conv2d_1/Conv2D_weights", "op": "Const", "attr": {"value": {"tensor": {"dtype": "DT_FLOAT", "tensorShape": {"dim": [{"size": "1"}, {"size": "1"}, {"size": "2304"}, {"size": "384"}]}}}, "dtype": {"type": "DT_FLOAT"}}}, {"name": "StatefulPartitionedCall/sequential_3/EfficientNet/StatefulPartitionedCall/StatefulPartitionedCall/StatefulPartitionedCall/blocks_61/StatefulPartitionedCall/conv2d_1/Conv2D_bn_offset", "op": "Const", "attr": {"dtype": {"type": "DT_FLOAT"}, "value": {"tensor": {"dtype": "DT_FLOAT", "tensorShape": {"dim": [{"size": "384"}]}}}}}, {"name": "StatefulPartitionedCall/sequential_3/EfficientNet/StatefulPartitionedCall/StatefulPartitionedCall/StatefulPartitionedCall/blocks_62/StatefulPartitionedCall/conv2d/Conv2D_weights", "op": "Const", "attr": {"value": {"tensor": {"dtype": "DT_FLOAT", "tensorShape": {"dim": [{"size": "1"}, {"size": "1"}, {"size": "384"}, {"size": "2304"}]}}}, "dtype": {"type": "DT_FLOAT"}}}, {"name": "StatefulPartitionedCall/sequential_3/EfficientNet/StatefulPartitionedCall/StatefulPartitionedCall/StatefulPartitionedCall/blocks_62/StatefulPartitionedCall/conv2d/Conv2D_bn_offset", "op": "Const", "attr": {"dtype": {"type": "DT_FLOAT"}, "value": {"tensor": {"dtype": "DT_FLOAT", "tensorShape": {"dim": [{"size": "2304"}]}}}}}, {"name": "StatefulPartitionedCall/sequential_3/EfficientNet/StatefulPartitionedCall/StatefulPartitionedCall/StatefulPartitionedCall/blocks_62/StatefulPartitionedCall/depthwise_conv2d/depthwise_weights", "op": "Const", "attr": {"value": {"tensor": {"dtype": "DT_FLOAT", "tensorShape": {"dim": [{"size": "3"}, {"size": "3"}, {"size": "2304"}, {"size": "1"}]}}}, "dtype": {"type": "DT_FLOAT"}}}, {"name": "StatefulPartitionedCall/sequential_3/EfficientNet/StatefulPartitionedCall/StatefulPartitionedCall/StatefulPartitionedCall/blocks_62/StatefulPartitionedCall/depthwise_conv2d/depthwise_bn_offset", "op": "Const", "attr": {"dtype": {"type": "DT_FLOAT"}, "value": {"tensor": {"dtype": "DT_FLOAT", "tensorShape": {"dim": [{"size": "2304"}]}}}}}, {"name": "StatefulPartitionedCall/sequential_3/EfficientNet/StatefulPartitionedCall/StatefulPartitionedCall/StatefulPartitionedCall/blocks_76/StatefulPartitionedCall/conv2d_1/Conv2D_weights", "op": "Const", "attr": {"dtype": {"type": "DT_FLOAT"}, "value": {"tensor": {"dtype": "DT_FLOAT", "tensorShape": {"dim": [{"size": "1"}, {"size": "1"}, {"size": "3840"}, {"size": "640"}]}}}}}, {"name": "StatefulPartitionedCall/sequential_3/EfficientNet/StatefulPartitionedCall/StatefulPartitionedCall/StatefulPartitionedCall/blocks_62/StatefulPartitionedCall/conv2d_1/Conv2D_weights", "op": "Const", "attr": {"dtype": {"type": "DT_FLOAT"}, "value": {"tensor": {"dtype": "DT_FLOAT", "tensorShape": {"dim": [{"size": "1"}, {"size": "1"}, {"size": "2304"}, {"size": "384"}]}}}}}, {"name": "StatefulPartitionedCall/sequential_3/EfficientNet/StatefulPartitionedCall/StatefulPartitionedCall/StatefulPartitionedCall/head/StatefulPartitionedCall/conv2d/Conv2D_weights", "op": "Const", "attr": {"dtype": {"type": "DT_FLOAT"}, "value": {"tensor": {"dtype": "DT_FLOAT", "tensorShape": {"dim": [{"size": "1"}, {"size": "1"}, {"size": "640"}, {"size": "1280"}]}}}}}, {"name": "StatefulPartitionedCall/sequential_3/EfficientNet/StatefulPartitionedCall/StatefulPartitionedCall/StatefulPartitionedCall/blocks_62/StatefulPartitionedCall/conv2d_1/Conv2D_bn_offset", "op": "Const", "attr": {"dtype": {"type": "DT_FLOAT"}, "value": {"tensor": {"dtype": "DT_FLOAT", "tensorShape": {"dim": [{"size": "384"}]}}}}}, {"name": "StatefulPartitionedCall/sequential_3/EfficientNet/StatefulPartitionedCall/StatefulPartitionedCall/StatefulPartitionedCall/blocks_63/StatefulPartitionedCall/conv2d/Conv2D_weights", "op": "Const", "attr": {"dtype": {"type": "DT_FLOAT"}, "value": {"tensor": {"dtype": "DT_FLOAT", "tensorShape": {"dim": [{"size": "1"}, {"size": "1"}, {"size": "384"}, {"size": "2304"}]}}}}}, {"name": "StatefulPartitionedCall/sequential_3/EfficientNet/StatefulPartitionedCall/StatefulPartitionedCall/StatefulPartitionedCall/blocks_76/StatefulPartitionedCall/conv2d_1/Conv2D_bn_offset", "op": "Const", "attr": {"value": {"tensor": {"dtype": "DT_FLOAT", "tensorShape": {"dim": [{"size": "640"}]}}}, "dtype": {"type": "DT_FLOAT"}}}, {"name": "StatefulPartitionedCall/sequential_3/EfficientNet/StatefulPartitionedCall/StatefulPartitionedCall/StatefulPartitionedCall/blocks_63/StatefulPartitionedCall/conv2d/Conv2D_bn_offset", "op": "Const", "attr": {"dtype": {"type": "DT_FLOAT"}, "value": {"tensor": {"dtype": "DT_FLOAT", "tensorShape": {"dim": [{"size": "2304"}]}}}}}, {"name": "StatefulPartitionedCall/sequential_3/EfficientNet/StatefulPartitionedCall/StatefulPartitionedCall/StatefulPartitionedCall/blocks_63/StatefulPartitionedCall/depthwise_conv2d/depthwise_weights", "op": "Const", "attr": {"dtype": {"type": "DT_FLOAT"}, "value": {"tensor": {"dtype": "DT_FLOAT", "tensorShape": {"dim": [{"size": "3"}, {"size": "3"}, {"size": "2304"}, {"size": "1"}]}}}}}, {"name": "StatefulPartitionedCall/sequential_3/EfficientNet/StatefulPartitionedCall/StatefulPartitionedCall/StatefulPartitionedCall/blocks_63/StatefulPartitionedCall/depthwise_conv2d/depthwise_bn_offset", "op": "Const", "attr": {"dtype": {"type": "DT_FLOAT"}, "value": {"tensor": {"dtype": "DT_FLOAT", "tensorShape": {"dim": [{"size": "2304"}]}}}}}, {"name": "StatefulPartitionedCall/sequential_3/EfficientNet/StatefulPartitionedCall/StatefulPartitionedCall/StatefulPartitionedCall/blocks_63/StatefulPartitionedCall/conv2d_1/Conv2D_weights", "op": "Const", "attr": {"dtype": {"type": "DT_FLOAT"}, "value": {"tensor": {"dtype": "DT_FLOAT", "tensorShape": {"dim": [{"size": "1"}, {"size": "1"}, {"size": "2304"}, {"size": "384"}]}}}}}, {"name": "StatefulPartitionedCall/sequential_3/EfficientNet/StatefulPartitionedCall/StatefulPartitionedCall/StatefulPartitionedCall/blocks_77/StatefulPartitionedCall/conv2d/Conv2D_weights", "op": "Const", "attr": {"value": {"tensor": {"dtype": "DT_FLOAT", "tensorShape": {"dim": [{"size": "1"}, {"size": "1"}, {"size": "640"}, {"size": "3840"}]}}}, "dtype": {"type": "DT_FLOAT"}}}, {"name": "StatefulPartitionedCall/sequential_3/EfficientNet/StatefulPartitionedCall/StatefulPartitionedCall/StatefulPartitionedCall/blocks_63/StatefulPartitionedCall/conv2d_1/Conv2D_bn_offset", "op": "Const", "attr": {"dtype": {"type": "DT_FLOAT"}, "value": {"tensor": {"dtype": "DT_FLOAT", "tensorShape": {"dim": [{"size": "384"}]}}}}}, {"name": "StatefulPartitionedCall/sequential_3/EfficientNet/StatefulPartitionedCall/StatefulPartitionedCall/StatefulPartitionedCall/blocks_64/StatefulPartitionedCall/conv2d/Conv2D_weights", "op": "Const", "attr": {"dtype": {"type": "DT_FLOAT"}, "value": {"tensor": {"dtype": "DT_FLOAT", "tensorShape": {"dim": [{"size": "1"}, {"size": "1"}, {"size": "384"}, {"size": "2304"}]}}}}}, {"name": "StatefulPartitionedCall/sequential_3/EfficientNet/StatefulPartitionedCall/StatefulPartitionedCall/StatefulPartitionedCall/blocks_64/StatefulPartitionedCall/conv2d/Conv2D_bn_offset", "op": "Const", "attr": {"value": {"tensor": {"dtype": "DT_FLOAT", "tensorShape": {"dim": [{"size": "2304"}]}}}, "dtype": {"type": "DT_FLOAT"}}}, {"name": "StatefulPartitionedCall/sequential_3/EfficientNet/StatefulPartitionedCall/StatefulPartitionedCall/StatefulPartitionedCall/blocks_64/StatefulPartitionedCall/depthwise_conv2d/depthwise_weights", "op": "Const", "attr": {"dtype": {"type": "DT_FLOAT"}, "value": {"tensor": {"dtype": "DT_FLOAT", "tensorShape": {"dim": [{"size": "3"}, {"size": "3"}, {"size": "2304"}, {"size": "1"}]}}}}}, {"name": "StatefulPartitionedCall/sequential_3/EfficientNet/StatefulPartitionedCall/StatefulPartitionedCall/StatefulPartitionedCall/blocks_64/StatefulPartitionedCall/depthwise_conv2d/depthwise_bn_offset", "op": "Const", "attr": {"value": {"tensor": {"dtype": "DT_FLOAT", "tensorShape": {"dim": [{"size": "2304"}]}}}, "dtype": {"type": "DT_FLOAT"}}}, {"name": "StatefulPartitionedCall/sequential_3/EfficientNet/StatefulPartitionedCall/StatefulPartitionedCall/StatefulPartitionedCall/blocks_77/StatefulPartitionedCall/conv2d/Conv2D_bn_offset", "op": "Const", "attr": {"dtype": {"type": "DT_FLOAT"}, "value": {"tensor": {"dtype": "DT_FLOAT", "tensorShape": {"dim": [{"size": "3840"}]}}}}}, {"name": "StatefulPartitionedCall/sequential_3/EfficientNet/StatefulPartitionedCall/StatefulPartitionedCall/StatefulPartitionedCall/blocks_64/StatefulPartitionedCall/conv2d_1/Conv2D_weights", "op": "Const", "attr": {"dtype": {"type": "DT_FLOAT"}, "value": {"tensor": {"dtype": "DT_FLOAT", "tensorShape": {"dim": [{"size": "1"}, {"size": "1"}, {"size": "2304"}, {"size": "384"}]}}}}}, {"name": "StatefulPartitionedCall/sequential_3/EfficientNet/StatefulPartitionedCall/StatefulPartitionedCall/StatefulPartitionedCall/blocks_64/StatefulPartitionedCall/conv2d_1/Conv2D_bn_offset", "op": "Const", "attr": {"dtype": {"type": "DT_FLOAT"}, "value": {"tensor": {"dtype": "DT_FLOAT", "tensorShape": {"dim": [{"size": "384"}]}}}}}, {"name": "StatefulPartitionedCall/sequential_3/EfficientNet/StatefulPartitionedCall/StatefulPartitionedCall/StatefulPartitionedCall/blocks_65/StatefulPartitionedCall/conv2d/Conv2D_weights", "op": "Const", "attr": {"value": {"tensor": {"dtype": "DT_FLOAT", "tensorShape": {"dim": [{"size": "1"}, {"size": "1"}, {"size": "384"}, {"size": "2304"}]}}}, "dtype": {"type": "DT_FLOAT"}}}, {"name": "StatefulPartitionedCall/sequential_3/EfficientNet/StatefulPartitionedCall/StatefulPartitionedCall/StatefulPartitionedCall/bloc…
all/sequential_3/EfficientNet/StatefulPartitionedCall/StatefulPartitionedCall/StatefulPartitionedCall/blocks_59/StatefulPartitionedCall/se/conv2d_1/Conv2D/ReadVariableOp", "shape": [1, 1, 96, 2304], "dtype": "float32"}, {"name": "StatefulPartitionedCall/sequential_3/EfficientNet/StatefulPartitionedCall/StatefulPartitionedCall/StatefulPartitionedCall/blocks_59/StatefulPartitionedCall/se/conv2d_1/BiasAdd/ReadVariableOp", "shape": [2304], "dtype": "float32"}, {"name": "StatefulPartitionedCall/sequential_3/EfficientNet/StatefulPartitionedCall/StatefulPartitionedCall/StatefulPartitionedCall/blocks_58/StatefulPartitionedCall/se/Mean/reduction_indices", "shape": [2], "dtype": "int32"}, {"name": "StatefulPartitionedCall/sequential_3/EfficientNet/StatefulPartitionedCall/StatefulPartitionedCall/StatefulPartitionedCall/blocks_58/StatefulPartitionedCall/se/conv2d/Conv2D/ReadVariableOp", "shape": [1, 1, 2304, 96], "dtype": "float32"}, {"name": "StatefulPartitionedCall/sequential_3/EfficientNet/StatefulPartitionedCall/StatefulPartitionedCall/StatefulPartitionedCall/blocks_58/StatefulPartitionedCall/se/conv2d/BiasAdd/ReadVariableOp", "shape": [96], "dtype": "float32"}, {"name": "StatefulPartitionedCall/sequential_3/EfficientNet/StatefulPartitionedCall/StatefulPartitionedCall/StatefulPartitionedCall/blocks_58/StatefulPartitionedCall/se/conv2d_1/Conv2D/ReadVariableOp", "shape": [1, 1, 96, 2304], "dtype": "float32"}, {"name": "StatefulPartitionedCall/sequential_3/EfficientNet/StatefulPartitionedCall/StatefulPartitionedCall/StatefulPartitionedCall/blocks_58/StatefulPartitionedCall/se/conv2d_1/BiasAdd/ReadVariableOp", "shape": [2304], "dtype": "float32"}, {"name": "StatefulPartitionedCall/sequential_3/EfficientNet/StatefulPartitionedCall/StatefulPartitionedCall/StatefulPartitionedCall/blocks_57/StatefulPartitionedCall/se/Mean/reduction_indices", "shape": [2], "dtype": "int32"}, {"name": "StatefulPartitionedCall/sequential_3/EfficientNet/StatefulPartitionedCall/StatefulPartitionedCall/StatefulPartitionedCall/blocks_57/StatefulPartitionedCall/se/conv2d/Conv2D/ReadVariableOp", "shape": [1, 1, 2304, 96], "dtype": "float32"}, {"name": "StatefulPartitionedCall/sequential_3/EfficientNet/StatefulPartitionedCall/StatefulPartitionedCall/StatefulPartitionedCall/blocks_57/StatefulPartitionedCall/se/conv2d/BiasAdd/ReadVariableOp", "shape": [96], "dtype": "float32"}, {"name": "StatefulPartitionedCall/sequential_3/EfficientNet/StatefulPartitionedCall/StatefulPartitionedCall/StatefulPartitionedCall/blocks_57/StatefulPartitionedCall/se/conv2d_1/Conv2D/ReadVariableOp", "shape": [1, 1, 96, 2304], "dtype": "float32"}, {"name": "StatefulPartitionedCall/sequential_3/EfficientNet/StatefulPartitionedCall/StatefulPartitionedCall/StatefulPartitionedCall/blocks_57/StatefulPartitionedCall/se/conv2d_1/BiasAdd/ReadVariableOp", "shape": [2304], "dtype": "float32"}, {"name": "StatefulPartitionedCall/sequential_3/EfficientNet/StatefulPartitionedCall/StatefulPartitionedCall/StatefulPartitionedCall/blocks_56/StatefulPartitionedCall/se/Mean/reduction_indices", "shape": [2], "dtype": "int32"}, {"name": "StatefulPartitionedCall/sequential_3/EfficientNet/StatefulPartitionedCall/StatefulPartitionedCall/StatefulPartitionedCall/blocks_56/StatefulPartitionedCall/se/conv2d/Conv2D/ReadVariableOp", "shape": [1, 1, 2304, 96], "dtype": "float32"}, {"name": "StatefulPartitionedCall/sequential_3/EfficientNet/StatefulPartitionedCall/StatefulPartitionedCall/StatefulPartitionedCall/blocks_56/StatefulPartitionedCall/se/conv2d/BiasAdd/ReadVariableOp", "shape": [96], "dtype": "float32"}, {"name": "StatefulPartitionedCall/sequential_3/EfficientNet/StatefulPartitionedCall/StatefulPartitionedCall/StatefulPartitionedCall/blocks_56/StatefulPartitionedCall/se/conv2d_1/Conv2D/ReadVariableOp", "shape": [1, 1, 96, 2304], "dtype": "float32"}, {"name": "StatefulPartitionedCall/sequential_3/EfficientNet/StatefulPartitionedCall/StatefulPartitionedCall/StatefulPartitionedCall/blocks_56/StatefulPartitionedCall/se/conv2d_1/BiasAdd/ReadVariableOp", "shape": [2304], "dtype": "float32"}, {"name": "StatefulPartitionedCall/sequential_3/EfficientNet/StatefulPartitionedCall/StatefulPartitionedCall/StatefulPartitionedCall/blocks_55/StatefulPartitionedCall/se/Mean/reduction_indices", "shape": [2], "dtype": "int32"}, {"name": "StatefulPartitionedCall/sequential_3/EfficientNet/StatefulPartitionedCall/StatefulPartitionedCall/StatefulPartitionedCall/blocks_55/StatefulPartitionedCall/se/conv2d/Conv2D/ReadVariableOp", "shape": [1, 1, 2304, 96], "dtype": "float32"}, {"name": "StatefulPartitionedCall/sequential_3/EfficientNet/StatefulPartitionedCall/StatefulPartitionedCall/StatefulPartitionedCall/blocks_55/StatefulPartitionedCall/se/conv2d/BiasAdd/ReadVariableOp", "shape": [96], "dtype": "float32"}, {"name": "StatefulPartitionedCall/sequential_3/EfficientNet/StatefulPartitionedCall/StatefulPartitionedCall/StatefulPartitionedCall/blocks_55/StatefulPartitionedCall/se/conv2d_1/Conv2D/ReadVariableOp", "shape": [1, 1, 96, 2304], "dtype": "float32"}, {"name": "StatefulPartitionedCall/sequential_3/EfficientNet/StatefulPartitionedCall/StatefulPartitionedCall/StatefulPartitionedCall/blocks_55/StatefulPartitionedCall/se/conv2d_1/BiasAdd/ReadVariableOp", "shape": [2304], "dtype": "float32"}, {"name": "StatefulPartitionedCall/sequential_3/EfficientNet/StatefulPartitionedCall/StatefulPartitionedCall/StatefulPartitionedCall/blocks_54/StatefulPartitionedCall/se/Mean/reduction_indices", "shape": [2], "dtype": "int32"}, {"name": "StatefulPartitionedCall/sequential_3/EfficientNet/StatefulPartitionedCall/StatefulPartitionedCall/StatefulPartitionedCall/blocks_54/StatefulPartitionedCall/se/conv2d/Conv2D/ReadVariableOp", "shape": [1, 1, 2304, 96], "dtype": "float32"}, {"name": "StatefulPartitionedCall/sequential_3/EfficientNet/StatefulPartitionedCall/StatefulPartitionedCall/StatefulPartitionedCall/blocks_54/StatefulPartitionedCall/se/conv2d/BiasAdd/ReadVariableOp", "shape": [96], "dtype": "float32"}, {"name": "StatefulPartitionedCall/sequential_3/EfficientNet/StatefulPartitionedCall/StatefulPartitionedCall/StatefulPartitionedCall/blocks_54/StatefulPartitionedCall/se/conv2d_1/Conv2D/ReadVariableOp", "shape": [1, 1, 96, 2304], "dtype": "float32"}, {"name": "StatefulPartitionedCall/sequential_3/EfficientNet/StatefulPartitionedCall/StatefulPartitionedCall/StatefulPartitionedCall/blocks_54/StatefulPartitionedCall/se/conv2d_1/BiasAdd/ReadVariableOp", "shape": [2304], "dtype": "float32"}, {"name": "StatefulPartitionedCall/sequential_3/EfficientNet/StatefulPartitionedCall/StatefulPartitionedCall/StatefulPartitionedCall/blocks_53/StatefulPartitionedCall/se/Mean/reduction_indices", "shape": [2], "dtype": "int32"}, {"name": "StatefulPartitionedCall/sequential_3/EfficientNet/StatefulPartitionedCall/StatefulPartitionedCall/StatefulPartitionedCall/blocks_53/StatefulPartitionedCall/se/conv2d/Conv2D/ReadVariableOp", "shape": [1, 1, 2304, 96], "dtype": "float32"}, {"name": "StatefulPartitionedCall/sequential_3/EfficientNet/StatefulPartitionedCall/StatefulPartitionedCall/StatefulPartitionedCall/blocks_53/StatefulPartitionedCall/se/conv2d/BiasAdd/ReadVariableOp", "shape": [96], "dtype": "float32"}, {"name": "StatefulPartitionedCall/sequential_3/EfficientNet/StatefulPartitionedCall/StatefulPartitionedCall/StatefulPartitionedCall/blocks_53/StatefulPartitionedCall/se/conv2d_1/Conv2D/ReadVariableOp", "shape": [1, 1, 96, 2304], "dtype": "float32"}, {"name": "StatefulPartitionedCall/sequential_3/EfficientNet/StatefulPartitionedCall/StatefulPartitionedCall/StatefulPartitionedCall/blocks_53/StatefulPartitionedCall/se/conv2d_1/BiasAdd/ReadVariableOp", "shape": [2304], "dtype": "float32"}, {"name": "StatefulPartitionedCall/sequential_3/EfficientNet/StatefulPartitionedCall/StatefulPartitionedCall/StatefulPartitionedCall/blocks_52/StatefulPartitionedCall/se/Mean/reduction_indices", "shape": [2], "dtype": "int32"}, {"name": "StatefulPartitionedCall/sequential_3/EfficientNet/StatefulPartitionedCall/StatefulPartitionedCall/StatefulPartitionedCall/blocks_52/StatefulPartitionedCall/se/conv2d/Conv2D/ReadVariableOp", "shape": [1, 1, 2304, 96], "dtype": "float32"}, {"name": "StatefulPartitionedCall/sequential_3/EfficientNet/StatefulPartitionedCall/StatefulPartitionedCall/StatefulPartitionedCall/blocks_52/StatefulPartitionedCall/se/conv2d/BiasAdd/ReadVariableOp", "shape": [96], "dtype": "float32"}, {"name": "StatefulPartitionedCall/sequential_3/EfficientNet/StatefulPartitionedCall/StatefulPartitionedCall/StatefulPartitionedCall/blocks_52/StatefulPartitionedCall/se/conv2d_1/Conv2D/ReadVariableOp", "shape": [1, 1, 96, 2304], "dtype": "float32"}, {"name": "StatefulPartitionedCall/sequential_3/EfficientNet/StatefulPartitionedCall/StatefulPartitionedCall/StatefulPartitionedCall/blocks_52/StatefulPartitionedCall/se/conv2d_1/BiasAdd/ReadVariableOp", "shape": [2304], "dtype": "float32"}, {"name": "StatefulPartitionedCall/sequential_3/EfficientNet/StatefulPartitionedCall/StatefulPartitionedCall/StatefulPartitionedCall/blocks_51/StatefulPartitionedCall/se/Mean/reduction_indices", "shape": [2], "dtype": "int32"}, {"name": "StatefulPartitionedCall/sequential_3/EfficientNet/StatefulPartitionedCall/StatefulPartitionedCall/StatefulPartitionedCall/blocks_51/StatefulPartitionedCall/se/conv2d/Conv2D/ReadVariableOp", "shape": [1, 1, 2304, 96], "dtype": "float32"}, {"name": "StatefulPartitionedCall/sequential_3/EfficientNet/StatefulPartitionedCall/StatefulPartitionedCall/StatefulPartitionedCall/blocks_51/StatefulPartitionedCall/se/conv2d/BiasAdd/ReadVariableOp", "shape": [96], "dtype": "float32"}, {"name": "StatefulPartitionedCall/sequential_3/EfficientNet/StatefulPartitionedCall/StatefulPartitionedCall/StatefulPartitionedCall/blocks_51/StatefulPartitionedCall/se/conv2d_1/Conv2D/ReadVariableOp", "shape": [1, 1, 96, 2304], "dtype": "float32"}, {"name": "StatefulPartitionedCall/sequential_3/EfficientNet/StatefulPartitionedCall/StatefulPartitionedCall/StatefulPartitionedCall/blocks_51/StatefulPartitionedCall/se/conv2d_1/BiasAdd/ReadVariableOp", "shape": [2304], "dtype": "float32"}, {"name": "StatefulPartitionedCall/sequential_3/EfficientNet/StatefulPartitionedCall/StatefulPartitionedCall/StatefulPartitionedCall/blocks_50/StatefulPartitionedCall/se/Mean/reduction_indices", "shape": [2], "dtype": "int32"}, {"name": "StatefulPartitionedCall/sequential_3/EfficientNet/StatefulPartitionedCall/StatefulPartitionedCall/StatefulPartitionedCall/blocks_50/StatefulPartitionedCall/se/conv2d/Conv2D/ReadVariableOp", "shape": [1, 1, 2304, 96], "dtype": "float32"}, {"name": "StatefulPartitionedCall/sequential_3/EfficientNet/StatefulPartitionedCall/StatefulPartitionedCall/StatefulPartitionedCall/blocks_50/StatefulPartitionedCall/se/conv2d/BiasAdd/ReadVariableOp", "shape": [96], "dtype": "float32"}, {"name": "StatefulPartitionedCall/sequential_3/EfficientNet/StatefulPartitionedCall/StatefulPartitionedCall/StatefulPartitionedCall/blocks_50/StatefulPartitionedCall/se/conv2d_1/Conv2D/ReadVariableOp", "shape": [1, 1, 96, 2304], "dtype": "float32"}, {"name": "StatefulPartitionedCall/sequential_3/EfficientNet/StatefulPartitionedCall/StatefulPartitionedCall/StatefulPartitionedCall/blocks_50/StatefulPartitionedCall/se/conv2d_1/BiasAdd/ReadVariableOp", "shape": [2304], "dtype": "float32"}, {"name": "StatefulPartitionedCall/sequential_3/EfficientNet/StatefulPartitionedCall/StatefulPartitionedCall/StatefulPartitionedCall/blocks_49/StatefulPartitionedCall/se/Mean/reduction_indices", "shape": [2], "dtype": "int32"}, {"name": "StatefulPartitionedCall/sequential_3/EfficientNet/StatefulPartitionedCall/StatefulPartitionedCall/StatefulPartitionedCall/blocks_49/StatefulPartitionedCall/se/conv2d/Conv2D/ReadVariableOp", "shape": [1, 1, 2304, 96], "dtype": "float32"}, {"name": "StatefulPartitionedCall/sequential_3/EfficientNet/StatefulPartitionedCall/StatefulPartitionedCall/StatefulPartitionedCall/blocks_49/StatefulPartitionedCall/se/conv2d/BiasAdd/ReadVariableOp", "shape": [96], "dtype": "float32"}, {"name": "StatefulPartitionedCall/sequential_3/EfficientNet/StatefulPartitionedCall/StatefulPartitionedCall/StatefulPartitionedCall/blocks_49/StatefulPartitionedCall/se/conv2d_1/Conv2D/ReadVariableOp", "shape": [1, 1, 96, 2304], "dtype": "float32"}, {"name": "StatefulPartitionedCall/sequential_3/EfficientNet/StatefulPartitionedCall/StatefulPartitionedCall/StatefulPartitionedCall/blocks_49/StatefulPartitionedCall/se/conv2d_1/BiasAdd/ReadVariableOp", "shape": [2304], "dtype": "float32"}, {"name": "StatefulPartitionedCall/sequential_3/EfficientNet/StatefulPartitionedCall/StatefulPartitionedCall/StatefulPartitionedCall/blocks_48/StatefulPartitionedCall/se/Mean/reduction_indices", "shape": [2], "dtype": "int32"}, {"name": "StatefulPartitionedCall/sequential_3/EfficientNet/StatefulPartitionedCall/StatefulPartitionedCall/StatefulPartitionedCall/blocks_48/StatefulPartitionedCall/se/conv2d/Conv2D/ReadVariableOp", "shape": [1, 1, 2304, 96], "dtype": "float32"}, {"name": "StatefulPartitionedCall/sequential_3/EfficientNet/StatefulPartitionedCall/StatefulPartitionedCall/StatefulPartitionedCall/blocks_48/StatefulPartitionedCall/se/conv2d/BiasAdd/ReadVariableOp", "shape": [96], "dtype": "float32"}, {"name": "StatefulPartitionedCall/sequential_3/EfficientNet/StatefulPartitionedCall/StatefulPartitionedCall/StatefulPartitionedCall/blocks_48/StatefulPartitionedCall/se/conv2d_1/Conv2D/ReadVariableOp", "shape": [1, 1, 96, 2304], "dtype": "float32"}, {"name": "StatefulPartitionedCall/sequential_3/EfficientNet/StatefulPartitionedCall/StatefulPartitionedCall/StatefulPartitionedCall/blocks_48/StatefulPartitionedCall/se/conv2d_1/BiasAdd/ReadVariableOp", "shape": [2304], "dtype": "float32"}, {"name": "StatefulPartitionedCall/sequential_3/EfficientNet/StatefulPartitionedCall/StatefulPartitionedCall/StatefulPartitionedCall/blocks_47/StatefulPartitionedCall/se/Mean/reduction_indices", "shape": [2], "dtype": "int32"}, {"name": "StatefulPartitionedCall/sequential_3/EfficientNet/StatefulPartitionedCall/StatefulPartitionedCall/StatefulPartitionedCall/blocks_47/StatefulPartitionedCall/se/conv2d/Conv2D/ReadVariableOp", "shape": [1, 1, 1344, 56], "dtype": "float32"}, {"name": "StatefulPartitionedCall/sequential_3/EfficientNet/StatefulPartitionedCall/StatefulPartitionedCall/StatefulPartitionedCall/blocks_47/StatefulPartitionedCall/se/conv2d/BiasAdd/ReadVariableOp", "shape": [56], "dtype": "float32"}, {"name": "StatefulPartitionedCall/sequential_3/EfficientNet/StatefulPartitionedCall/StatefulPartitionedCall/StatefulPartitionedCall/blocks_47/StatefulPartitionedCall/se/conv2d_1/Conv2D/ReadVariableOp", "shape": [1, 1, 56, 1344], "dtype": "float32"}, {"name": "StatefulPartitionedCall/sequential_3/EfficientNet/StatefulPartitionedCall/StatefulPartitionedCall/StatefulPartitionedCall/blocks_47/StatefulPartitionedCall/se/conv2d_1/BiasAdd/ReadVariableOp", "shape": [1344], "dtype": "float32"}, {"name": "StatefulPartitionedCall/sequential_3/EfficientNet/StatefulPartitionedCall/StatefulPartitionedCall/StatefulPartitionedCall/blocks_46/StatefulPartitionedCall/se/Mean/reduction_indices", "shape": [2], "dtype": "int32"}, {"name": "StatefulPartitionedCall/sequential_3/EfficientNet/StatefulPartitionedCall/StatefulPartitionedCall/StatefulPartitionedCall/blocks_46/StatefulPartitionedCall/se/conv2d/Conv2D/ReadVariableOp", "shape": [1, 1, 1344, 56], "dtype": "float32"}, {"name": "StatefulPartitionedCall/sequential_3/EfficientNet/StatefulPartitionedCall/StatefulPartitionedCall/StatefulPartitionedCall/blocks_46/StatefulPartitionedCall/se/conv2d/BiasAdd/ReadVariableOp", "shape": [56], "dtype": "float32"}, {"name": "StatefulPartitionedCall/sequential_3/EfficientNet/StatefulPartitionedCall/StatefulPartitionedCall/StatefulPartitionedCall/blocks_46/StatefulPartitionedCall/se/conv2d_1/Conv2D/ReadVariableOp", "shape": [1, 1, 56, 1344], "dtype": "float32"}, {"name": "StatefulPartitionedCall/sequential_3/EfficientNet/StatefulPartitionedCall/StatefulPartitionedCall/StatefulPartitionedCall/blocks_46/StatefulPartitionedCall/se/conv2d_1/BiasAdd/ReadVariableOp", "shape": [1344], "dtype": "float32"}, {"name": "StatefulPartitionedCall/sequential_3/EfficientNet/StatefulPartitionedCall/StatefulPartitionedCall/StatefulPartitionedCall/blocks_45/StatefulPartitionedCall/se/Mean/reduction_indices", "shape": [2], "dtype": "int32"}, {"name": "StatefulPartitionedCall/sequential_3/EfficientNet/StatefulPartitionedCall/StatefulPartitionedCall/StatefulPartitionedCall/blocks_45/StatefulPartitionedCall/se/conv2d/Conv2D/ReadVariableOp", "shape": [1, 1, 1344, 56], "dtype": "float32"}, {"name": "StatefulPartitionedCall/sequential_3/EfficientNet/StatefulPartitionedCall/StatefulPartitionedCall/StatefulPartitionedCall/blocks_45/StatefulPartitionedCall/se/conv2d/BiasAdd/ReadVariableOp", "shape": [56], "dtype": "float32"}, {"name": "StatefulPartitionedCall/sequential_3/EfficientNet/StatefulPartitionedCall/StatefulPartitionedCall/StatefulPartitionedCall/blocks_45/StatefulPartitionedCall/se/conv2d_1/Conv2D/ReadVariableOp", "shape": [1, 1, 56, 1344], "dtype": "float32"}, {"name": "StatefulPartitionedCall/sequential_3/EfficientNet/StatefulPartitionedCall/StatefulPartitionedCall/StatefulPartitionedCall/blocks_45/StatefulPartitionedCall/se/conv2d_1/BiasAdd/ReadVariableOp", "shape": [1344], "dtype": "float32"}, {"name": "StatefulPartitionedCall/sequential_3/EfficientNet/StatefulPartitionedCall/StatefulPartitionedCall/StatefulPartitionedCall/blocks_44/StatefulPartitionedCall/se/Mean/reduction_indices", "shape": [2], "dtype": "int32"}, {"name": "StatefulPartitionedCall/sequential_3/EfficientNet/StatefulPartitionedCall/StatefulPartitionedCall/StatefulPartitionedCall/blocks_44/StatefulPartitionedCall/se/conv2d/Conv2D/ReadVariableOp", "shape": [1, 1, 1344, 56], "dtype": "float32"}, {"name": "StatefulPartitionedCall/sequential_3/EfficientNet/StatefulPartitionedCall/StatefulPartitionedCall/StatefulPartitionedCall/blocks_44/StatefulPartitionedCall/se/conv2d/BiasAdd/ReadVariableOp", "shape": [56], "dtype": "float32"}, {"name": "StatefulPartitionedCall/sequential_3/EfficientNet/StatefulPartitionedCall/StatefulPartitionedCall/StatefulPartitionedCall/blocks_44/StatefulPartitionedCall/se/conv2d_1/Conv2D/ReadVariableOp", "shape": [1, 1, 56, 1344], "dtype": "float32"}, {"name": "StatefulPartitionedCall/sequential_3/EfficientNet/StatefulPartitionedCall/StatefulPartitionedCall/StatefulPartitionedCall/blocks_44/StatefulPartitionedCall/se/conv2d_1/BiasAdd/ReadVariableOp", "shape": [1344], "dtype": "float32"}, {"name": "StatefulPartitionedCall/sequential_3/EfficientNet/StatefulPartitionedCall/StatefulPartitionedCall/StatefulPartitionedCall/blocks_43/StatefulPartitionedCall/se/Mean/reduction_indices", "shape": [2], "dtype": "int32"}, {"name": "StatefulPartitionedCall/sequential_3/EfficientNet/StatefulPartitionedCall/StatefulPartitionedCall/StatefulPartitionedCall/blocks_43/StatefulPartitionedCall/se/conv2d/Conv2D/ReadVariableOp", "shape": [1, 1, 1344, 56], "dtype": "float32"}, {"name": "StatefulPartitionedCall/sequential_3/EfficientNet/StatefulPartitionedCall/StatefulPartitionedCall/StatefulPartitionedCall/blocks_43/StatefulPartitionedCall/se/conv2d/BiasAdd/ReadVariableOp", "shape": [56], "dtype": "float32"}, {"name": "StatefulPartitionedCall/sequential_3/EfficientNet/StatefulPartitionedCall/StatefulPartitionedCall/StatefulPartitionedCall/blocks_43/StatefulPartitionedCall/se/conv2d_1/Conv2D/ReadVariableOp", "shape": [1, 1, 56, 1344], "dtype": "float32"}, {"name": "StatefulPartitionedCall/sequential_3/EfficientNet/StatefulPartitionedCall/StatefulPartitionedCall/StatefulPartitionedCall/blocks_43/StatefulPartitionedCall/se/conv2d_1/BiasAdd/ReadVariableOp", "shape": [1344], "dtype": "float32"}, {"name": "StatefulPartitionedCall/sequential_3/EfficientNet/StatefulPartitionedCall/StatefulPartitionedCall/StatefulPartitionedCall/blocks_42/StatefulPartitionedCall/se/Mean/reduction_indices", "shape": [2], "dtype": "int32"}, {"name": "StatefulPartitionedCall/sequential_3/EfficientNet/StatefulPartitionedCall/StatefulPartitionedCall/StatefulPartitionedCall/blocks_42/StatefulPartitionedCall/se/conv2d/Conv2D/ReadVariableOp", "shape": [1, 1, 1344, 56], "dtype": "float32"}, {"name": "StatefulPartitionedCall/sequential_3/EfficientNet/StatefulPartitionedCall/StatefulPartitionedCall/StatefulPartitionedCall/blocks_42/StatefulPartitionedCall/se/conv2d/BiasAdd/ReadVariableOp", "shape": [56], "dtype": "float32"}, {"name": "StatefulPartitionedCall/sequential_3/EfficientNet/StatefulPartitionedCall/StatefulPartitionedCall/StatefulPartitionedCall/blocks_42/StatefulPartitionedCall/se/conv2d_1/Conv2D/ReadVariableOp", "shape": [1, 1, 56, 1344], "dtype": "float32"}, {"name": "StatefulPartitionedCall/sequential_3/EfficientNet/StatefulPartitionedCall/StatefulPartitionedCall/StatefulPartitionedCall/blocks_42/StatefulPartitionedCall/se/conv2d_1/BiasAdd/ReadVariableOp", "shape": [1344], "dtype": "float32"}, {"name": "StatefulPartitionedCall/sequential_3/EfficientNet/StatefulPartitionedCall/StatefulPartitionedCall/StatefulPartitionedCall/blocks_41/StatefulPartitionedCall/se/Mean/reduction_indices", "shape": [2], "dtype": "int32"}, {"name": "StatefulPartitionedCall/sequential_3/EfficientNet/StatefulPartitionedCall/StatefulPartitionedCall/StatefulPartitionedCall/blocks_41/StatefulPartitionedCall/se/conv2d/Conv2D/ReadVariableOp", "shape": [1, 1, 1344, 56], "dtype": "float32"}, {"name": "StatefulPartitionedCall/sequential_3/EfficientNet/StatefulPartitionedCall/StatefulPartitionedCall/StatefulPartitionedCall/blocks_41/StatefulPartitionedCall/se/conv2d/BiasAdd/ReadVariableOp", "shape": [56], "dtype": "float32"}, {"name": "StatefulPartitionedCall/sequential_3/EfficientNet/StatefulPartitionedCall/StatefulPartitionedCall/StatefulPartitionedCall/blocks_41/StatefulPartitionedCall/se/conv2d_1/Conv2D/ReadVariableOp", "shape": [1, 1, 56, 1344], "dtype": "float32"}, {"name": "StatefulPartitionedCall/sequential_3/EfficientNet/StatefulPartitionedCall/StatefulPartitionedCall/StatefulPartitionedCall/blocks_41/StatefulPartitionedCall/se/conv2d_1/BiasAdd/ReadVariableOp", "shape": [1344], "dtype": "float32"}, {"name": "StatefulPartitionedCall/sequential_3/EfficientNet/StatefulPartitionedCall/StatefulPartitionedCall/StatefulPartitionedCall/blocks_40/StatefulPartitionedCall/se/Mean/reduction_indices", "shape": [2], "dtype": "int32"}, {"name": "StatefulPartitionedCall/sequential_3/EfficientNet/StatefulPartitionedCall/StatefulPartitionedCall/StatefulPartitionedCall/blocks_40/StatefulPartitionedCall/se/conv2d/Conv2D/ReadVariableOp", "shape": [1, 1, 1344, 56], "dtype": "float32"}, {"name": "StatefulPartitionedCall/sequential_3/EfficientNet/StatefulPartitionedCall/StatefulPartitionedCall/StatefulPartitionedCall/blocks_40/StatefulPartitionedCall/se/conv2d/BiasAdd/ReadVariableOp", "shape": [56], "dtype": "float32"}, {"name": "StatefulPartitionedCall/sequential_3/EfficientNet/StatefulPartitionedCall/StatefulPartitionedCall/StatefulPartitionedCall/blocks_40/StatefulPartitionedCall/se/conv2d_1/Conv2D/ReadVariableOp", "shape": [1, 1, 56, 1344], "dtype": "float32"}, {"name": "StatefulPartitionedCall/sequential_3/EfficientNet/StatefulPartitionedCall/StatefulPartitionedCall/StatefulPartitionedCall/blocks_40/StatefulPartitionedCall/se/conv2d_1/BiasAdd/ReadVariableOp", "shape": [1344], "dtype": "float32"}, {"name": "StatefulPartitionedCall/sequential_3/EfficientNet/StatefulPartitionedCall/StatefulPartitionedCall/StatefulPartitionedCall/blocks_39/StatefulPartitionedCall/se/Mean/reduction_indices", "shape": [2], "dtype": "int32"}, {"name": "StatefulPartitionedCall/sequential_3/EfficientNet/StatefulPartitionedCall/StatefulPartitionedCall/StatefulPartitionedCall/blocks_39/StatefulPartitionedCall/se/conv2d/Conv2D/ReadVariableOp", "shape": [1, 1, 1344, 56], "dtype": "float32"}, {"name": "StatefulPartitionedCall/sequential_3/EfficientNet/StatefulPartitionedCall/StatefulPartitionedCall/StatefulPartitionedCall/blocks_39/StatefulPartitionedCall/se/conv2d/BiasAdd/ReadVariableOp", "shape": [56], "dtype": "float32"}, {"name": "StatefulPartitionedCall/sequential_3/EfficientNet/StatefulPartitionedCall/StatefulPartitionedCall/StatefulPartitionedCall/blocks_39/StatefulPartitionedCall/se/conv2d_1/Conv2D/ReadVariableOp", "shape": [1, 1, 56, 1344], "dtype": "float32"}, {"name": "StatefulPartitionedCall/sequential_3/EfficientNet/StatefulPartitionedCall/StatefulPartitionedCall/StatefulPartitionedCall/blocks_39/StatefulPartitionedCall/se/conv2d_1/BiasAdd/ReadVariableOp", "shape": [1344], "dtype": "float32"}, {"name": "StatefulPartitionedCall/sequential_3/EfficientNet/StatefulPartitionedCall/StatefulPartitionedCall/StatefulPartitionedCall/blocks_38/StatefulPartitionedCall/se/Mean/reduction_indices", "shape": [2], "dtype": "int32"}, {"name": "StatefulPartitionedCall/sequential_3/EfficientNet/StatefulPartitionedCall/StatefulPartitionedCall/StatefulPartitionedCall/blocks_38/StatefulPartitionedCall/se/conv2d/Conv2D/ReadVariableOp", "shape": [1, 1, 1344, 56], "dtype": "float32"}, {"name": "StatefulPartitionedCall/sequential_3/EfficientNet/StatefulPartitionedCall/StatefulPartitionedCall/StatefulPartitionedCall/blocks_38/StatefulPartitionedCall/se/conv2d/BiasAdd/ReadVariableOp", "shape": [56], "dtype": "float32"}, {"name": "StatefulPartitionedCall/sequential_3/EfficientNet/StatefulPartitionedCall/StatefulPartitionedCall/StatefulPartitionedCall/blocks_38/StatefulPartitionedCall/se/conv2d_1/Conv2D/ReadVariableOp", "shape": [1, 1, 56, 1344], "dtype": "float32"}, {"name": "StatefulPartitionedCall/sequential_3/EfficientNet/StatefulPartitionedCall/StatefulPartitionedCall/StatefulPartitionedCall/blocks_38/StatefulPartitionedCall/se/conv2d_1/BiasAdd/ReadVariableOp", "shape": [1344], "dtype": "float32"}, {"name": "StatefulPartitionedCall/sequential_3/EfficientNet/StatefulPartitionedCall/StatefulPartitionedCall/StatefulPartitionedCall/blocks_37/StatefulPartitionedCall/se/Mean/reduction_indices", "shape": [2], "dtype": "int32"}, {"name": "StatefulPartitionedCall/sequential_3/EfficientNet/StatefulPartitionedCall/StatefulPartitionedCall/StatefulPartitionedCall/blocks_37/StatefulPartitionedCall/se/conv2d/Conv2D/ReadVariableOp", "shape": [1, 1, 1344, 56], "dtype": "float32"}, {"name": "StatefulPartitionedCall/sequential_3/EfficientNet/StatefulPartitionedCall/StatefulPartitionedCall/StatefulPartitionedCall/blocks_37/StatefulPartitionedCall/se/conv2d/BiasAdd/ReadVariableOp", "shape": [56], "dtype": "float32"}, {"name": "StatefulPartitionedCall/sequential_3/EfficientNet/StatefulPartitionedCall/StatefulPartitionedCall/StatefulPartitionedCall/blocks_37/StatefulPartitionedCall/se/conv2d_1/Conv2D/ReadVariableOp", "shape": [1, 1, 56, 1344], "dtype": "float32"}, {"name": "StatefulPartitionedCall/sequential_3/EfficientNet/StatefulPartitionedCall/StatefulPartitionedCall/StatefulPartitionedCall/blocks_37/StatefulPartitionedCall/se/conv2d_1/BiasAdd/ReadVariableOp", "shape": [1344], "dtype": "float32"}, {"name": "StatefulPartitionedCall/sequential_3/EfficientNet/StatefulPartitionedCall/StatefulPartitionedCall/StatefulPartitionedCall/blocks_36/StatefulPartitionedCall/se/Mean/reduction_indices", "shape": [2], "dtype": "int32"}, {"name": "StatefulPartitionedCall/sequential_3/EfficientNet/StatefulPartitionedCall/StatefulPartitionedCall/StatefulPartitionedCall/blocks_36/StatefulPartitionedCall/se/conv2d/Conv2D/ReadVariableOp", "shape": [1, 1, 1344, 56], "dtype": "float32"}, {"name": "StatefulPartitionedCall/sequential_3/EfficientNet/StatefulPartitionedCall/StatefulPartitionedCall/StatefulPartitionedCall/blocks_36/StatefulPartitionedCall/se/conv2d/BiasAdd/ReadVariableOp", "shape": [56], "dtype": "float32"}, {"name": "StatefulPartitionedCall/sequential_3/EfficientNet/StatefulPartitionedCall/StatefulPartitionedCall/StatefulPartitionedCall/blocks_36/StatefulPartitionedCall/se/conv2d_1/Conv2D/ReadVariableOp", "shape": [1, 1, 56, 1344], "dtype": "float32"}, {"name": "StatefulPartitionedCall/sequential_3/EfficientNet/StatefulPartitionedCall/StatefulPartitionedCall/StatefulPartitionedCall/blocks_36/StatefulPartitionedCall/se/conv2d_1/BiasAdd/ReadVariableOp", "shape": [1344], "dtype": "float32"}, {"name": "StatefulPartitionedCall/sequential_3/EfficientNet/StatefulPartitionedCall/StatefulPartitionedCall/StatefulPartitionedCall/blocks_35/StatefulPartitionedCall/se/Mean/reduction_indices", "shape": [2], "dtype": "int32"}, {"name": "StatefulPartitionedCall/sequential_3/EfficientNet/StatefulPartitionedCall/StatefulPartitionedCall/StatefulPartitionedCall/blocks_35/StatefulPartitionedCall/se/conv2d/Conv2D/ReadVariableOp", "shape": [1, 1, 1344, 56], "dtype": "float32"}, {"name": "StatefulPartitionedCall/sequential_3/EfficientNet/StatefulPartitionedCall/StatefulPartitionedCall/StatefulPartitionedCall/blocks_35/StatefulPartitionedCall/se/conv2d/BiasAdd/ReadVariableOp", "shape": [56], "dtype": "float32"}, {"name": "StatefulPartitionedCall/sequential_3/EfficientNet/StatefulPartitionedCall/StatefulPartitionedCall/StatefulPartitionedCall/blocks_35/StatefulPartitionedCall/se/conv2d_1/Conv2D/ReadVariableOp", "shape": [1, 1, 56, 1344], "dtype": "float32"}, {"name": "StatefulPartitionedCall/sequential_3/EfficientNet/StatefulPartitionedCall/StatefulPartitionedCall/StatefulPartitionedCall/blocks_35/StatefulPartitionedCall/se/conv2d_1/BiasAdd/ReadVariableOp", "shape": [1344], "dtype": "float32"}, {"name": "StatefulPartitionedCall/sequential_3/EfficientNet/StatefulPartitionedCall/StatefulPartitionedCall/StatefulPartitionedCall/blocks_34/StatefulPartitionedCall/se/Mean/reduction_indices", "shape": [2], "dtype": "int32"}, {"name": "StatefulPartitionedCall/sequential_3/EfficientNet/StatefulPartitionedCall/StatefulPartitionedCall/StatefulPartitionedCall/blocks_34/StatefulPartitionedCall/se/conv2d/Conv2D/ReadVariableOp", "shape": [1, 1, 1344, 56], "dtype": "float32"}, {"name": "StatefulPartitionedCall/sequential_3/EfficientNet/StatefulPartitionedCall/StatefulPartitionedCall/StatefulPartitionedCall/blocks_34/StatefulPartitionedCall/se/conv2d/BiasAdd/ReadVariableOp", "shape": [56], "dtype": "float32"}, {"name": "StatefulPartitionedCall/sequential_3/EfficientNet/StatefulPartitionedCall/StatefulPartitionedCall/StatefulPartitionedCall/blocks_34/StatefulPartitionedCall/se/conv2d_1/Conv2D/ReadVariableOp", "shape": [1, 1, 56, 1344], "dtype": "float32"}, {"name": "StatefulPartitionedCall/sequential_3/EfficientNet/StatefulPartitionedCall/StatefulPartitionedCall/StatefulPartitionedCall/blocks_34/StatefulPartitionedCall/se/conv2d_1/BiasAdd/ReadVariableOp", "shape": [1344], "dtype": "float32"}, {"name": "StatefulPartitionedCall/sequential_3/EfficientNet/StatefulPartitionedCall/StatefulPartitionedCall/StatefulPartitionedCall/blocks_33/StatefulPartitionedCall/se/Mean/reduction_indices", "shape": [2], "dtype": "int32"}, {"name": "StatefulPartitionedCall/sequential_3/EfficientNet/StatefulPartitionedCall/StatefulPartitionedCall/StatefulPartitionedCall/blocks_33/StatefulPartitionedCall/se/conv2d/Conv2D/ReadVariableOp", "shape": [1, 1, 1344, 56], "dtype": "float32"}, {"name": "StatefulPartitionedCall/sequential_3/EfficientNet/StatefulPartitionedCall/StatefulPartitionedCall/StatefulPartitionedCall/blocks_33/StatefulPartitionedCall/se/conv2d/BiasAdd/ReadVariableOp", "shape": [56], "dtype": "float32"}, {"name": "StatefulPartitionedCall/sequential_3/EfficientNet/StatefulPartitionedCall/StatefulPartitionedCall/StatefulPartitionedCall/blocks_33/StatefulPartitionedCall/se/conv2d_1/Conv2D/ReadVariableOp", "shape": [1, 1, 56, 1344], "dtype": "float32"}, {"name": "StatefulPartitionedCall/sequential_3/EfficientNet/StatefulPartitionedCall/StatefulPartitionedCall/StatefulPartitionedCall/blocks_33/StatefulPartitionedCall/se/conv2d_1/BiasAdd/ReadVariableOp", "shape": [1344], "dtype": "float32"}, {"name": "StatefulPartitionedCall/sequential_3/EfficientNet/StatefulPartitionedCall/StatefulPartitionedCall/StatefulPartitionedCall/blocks_32/StatefulPartitionedCall/se/Mean/reduction_indices", "shape": [2], "dtype": "int32"}, {"name": "StatefulPartitionedCall/sequential_3/EfficientNet/StatefulPartitionedCall/StatefulPartitionedCall/StatefulPartitionedCall/blocks_32/StatefulPartitionedCall/se/conv2d/Conv2D/ReadVariableOp", "shape": [1, 1, 1344, 56], "dtype": "float32"}, {"name": "StatefulPartitionedCall/sequential_3/EfficientNet/StatefulPartitionedCall/StatefulPartitionedCall/StatefulPartitionedCall/blocks_32/StatefulPartitionedCall/se/conv2d/BiasAdd/ReadVariableOp", "shape": [56], "dtype": "float32"}, {"name": "StatefulPartitionedCall/sequential_3/EfficientNet/StatefulPartitionedCall/StatefulPartitionedCall/StatefulPartitionedCall/blocks_32/StatefulPartitionedCall/se/conv2d_1/Conv2D/ReadVariableOp", "shape": [1, 1, 56, 1344], "dtype": "float32"}, {"name": "StatefulPartitionedCall/sequential_3/EfficientNet/StatefulPartitionedCall/StatefulPartitionedCall/StatefulPartitionedCall/blocks_32/StatefulPartitionedCall/se/conv2d_1/BiasAdd/ReadVariableOp", "shape": [1344], "dtype": "float32"}, {"name": "StatefulPartitionedCall/sequential_3/EfficientNet/StatefulPartitionedCall/StatefulPartitionedCall/StatefulPartitionedCall/blocks_31/StatefulPartitionedCall/se/Mean/reduction_indices", "shape": [2], "dtype": "int32"}, {"name": "StatefulPartitionedCall/sequential_3/EfficientNet/StatefulPartitionedCall/StatefulPartitionedCall/StatefulPartitionedCall/blocks_31/StatefulPartitionedCall/se/conv2d/Conv2D/ReadVariableOp", "shape": [1, 1, 1344, 56], "dtype": "float32"}, {"name": "StatefulPartitionedCall/sequential_3/EfficientNet/StatefulPartitionedCall/StatefulPartitionedCall/StatefulPartitionedCall/blocks_31/StatefulPartitionedCall/se/conv2d/BiasAdd/ReadVariableOp", "shape": [56], "dtype": "float32"}, {"name": "StatefulPartitionedCall/sequential_3/EfficientNet/StatefulPartitionedCall/StatefulPartitionedCall/StatefulPartitionedCall/blocks_31/StatefulPartitionedCall/se/conv2d_1/Conv2D/ReadVariableOp", "shape": [1, 1, 56, 1344], "dtype": "float32"}, {"name": "StatefulPartitionedCall/sequential_3/EfficientNet/StatefulPartitionedCall/StatefulPartitionedCall/StatefulPartitionedCall/blocks_31/StatefulPartitionedCall/se/conv2d_1/BiasAdd/ReadVariableOp", "shape": [1344], "dtype": "float32"}, {"name": "StatefulPartitionedCall/sequential_3/EfficientNet/StatefulPartitionedCall/StatefulPartitionedCall/StatefulPartitionedCall/blocks_30/StatefulPartitionedCall/se/Mean/reduction_indices", "shape": [2], "dtype": "int32"}, {"name": "StatefulPartitionedCall/sequential_3/EfficientNet/StatefulPartitionedCall/StatefulPartitionedCall/StatefulPartitionedCall/blocks_30/StatefulPartitionedCall/se/conv2d/Conv2D/ReadVariableOp", "shape": [1, 1, 1344, 56], "dtype": "float32"}, {"name": "StatefulPartitionedCall/sequential_3/EfficientNet/StatefulPartitionedCall/StatefulPartitionedCall/StatefulPartitionedCall/blocks_30/StatefulPartitionedCall/se/conv2d/BiasAdd/ReadVariableOp", "shape": [56], "dtype": "float32"}, {"name": "StatefulPartitionedCall/sequential_3/EfficientNet/StatefulPartitionedCall/StatefulPartitionedCall/StatefulPartitionedCall/blocks_30/StatefulPartitionedCall/se/conv2d_1/Conv2D/ReadVariableOp", "shape": [1, 1, 56, 1344], "dtype": "float32"}, {"name": "StatefulPartitionedCall/sequential_3/EfficientNet/StatefulPartitionedCall/StatefulPartitionedCall/StatefulPartitionedCall/blocks_30/StatefulPartitionedCall/se/conv2d_1/BiasAdd/ReadVariableOp", "shape": [1344], "dtype": "float32"}, {"name": "StatefulPartitionedCall/sequential_3/EfficientNet/StatefulPartitionedCall/StatefulPartitionedCall/StatefulPartitionedCall/blocks_29/StatefulPartitionedCall/se/Mean/reduction_indices", "shape": [2], "dtype": "int32"}, {"name": "StatefulPartitionedCall/sequential_3/EfficientNet/StatefulPartitionedCall/StatefulPartitionedCall/StatefulPartitionedCall/blocks_29/StatefulPartitionedCall/se/conv2d/Conv2D/ReadVariableOp", "shape": [1, 1, 1344, 56], "dtype": "float32"}, {"name": "StatefulPartitionedCall/sequential_3/EfficientNet/StatefulPartitionedCall/StatefulPartitionedCall/StatefulPartitionedCall/blocks_29/StatefulPartitionedCall/se/conv2d/BiasAdd/ReadVariableOp", "shape": [56], "dtype": "float32"}, {"name": "StatefulPartitionedCall/sequential_3/EfficientNet/StatefulPartitionedCall/StatefulPartitionedCall/StatefulPartitionedCall/blocks_29/StatefulPartitionedCall/se/conv2d_1/Conv2D/ReadVariableOp", "shape": [1, 1, 56, 1344], "dtype": "float32"}, {"name": "StatefulPartitionedCall/sequential_3/EfficientNet/StatefulPartitionedCall/StatefulPartitionedCall/StatefulPartitionedCall/blocks_29/StatefulPartitionedCall/se/conv2d_1/BiasAdd/ReadVariableOp", "shape": [1344], "dtype": "float32"}, {"name": "StatefulPartitionedCall/sequential_3/EfficientNet/StatefulPartitionedCall/StatefulPartitionedCall/StatefulPartitionedCall/blocks_28/StatefulPartitionedCall/se/Mean/reduction_indices", "shape": [2], "dtype": "int32"}, {"name": "StatefulPartitionedCall/sequential_3/EfficientNet/StatefulPartitionedCall/StatefulPartitionedCall/StatefulPartitionedCall/blocks_28/StatefulPartitionedCall/se/conv2d/Conv2D/ReadVariableOp", "shape": [1, 1, 1152, 48], "dtype": "float32"}, {"name": "StatefulPartitionedCall/sequential_3/EfficientNet/StatefulPartitionedCall/StatefulPartitionedCall/StatefulPartitionedCall/blocks_28/StatefulPartitionedCall/se/conv2d/BiasAdd/ReadVariableOp", "shape": [48], "dtype": "float32"}, {"name": "StatefulPartitionedCall/sequential_3/EfficientNet/StatefulPartitionedCall/StatefulPartitionedCall/StatefulPartitionedCall/blocks_28/StatefulPartitionedCall/se/conv2d_1/Conv2D/ReadVariableOp", "shape": [1, 1, 48, 1152], "dtype": "float32"}, {"name": "StatefulPartitionedCall/sequential_3/EfficientNet/StatefulPartitionedCall/StatefulPartitionedCall/StatefulPartitionedCall/blocks_28/StatefulPartitionedCall/se/conv2d_1/BiasAdd/ReadVariableOp", "shape": [1152], "dtype": "float32"}, {"name": "StatefulPartitionedCall/sequential_3/EfficientNet/StatefulPartitionedCall/StatefulPartitionedCall/StatefulPartitionedCall/blocks_27/StatefulPartitionedCall/se/Mean/reduction_indices", "shape": [2], "dtype": "int32"}, {"name": "StatefulPartitionedCall/sequential_3/EfficientNet/StatefulPartitionedCall/StatefulPartitionedCall/StatefulPartitionedCall/blocks_27/StatefulPartitionedCall/se/conv2d/Conv2D/ReadVariableOp", "shape": [1, 1, 768, 48], "dtype": "float32"}, {"name": "StatefulPartitionedCall/sequential_3/EfficientNet/StatefulPartitionedCall/StatefulPartitionedCall/StatefulPartitionedCall/blocks_27/StatefulPartitionedCall/se/conv2d/BiasAdd/ReadVariableOp", "shape": [48], "dtype": "float32"}, {"name": "StatefulPartitionedCall/sequential_3/EfficientNet/StatefulPartitionedCall/StatefulPartitionedCall/StatefulPartitionedCall/blocks_27/StatefulPartitionedCall/se/conv2d_1/Conv2D/ReadVariableOp", "shape": [1, 1, 48, 768], "dtype": "float32"}, {"name": "StatefulPartitionedCall/sequential_3/EfficientNet/StatefulPartitionedCall/StatefulPartitionedCall/StatefulPartitionedCall/blocks_27/StatefulPartitionedCall/se/conv2d_1/BiasAdd/ReadVariableOp", "shape": [768], "dtype": "float32"}, {"name": "StatefulPartitionedCall/sequential_3/EfficientNet/StatefulPartitionedCall/StatefulPartitionedCall/StatefulPartitionedCall/blocks_26/StatefulPartitionedCall/se/Mean/reduction_indices", "shape": [2], "dtype": "int32"}, {"name": "StatefulPartitionedCall/sequential_3/EfficientNet/StatefulPartitionedCall/StatefulPartitionedCall/StatefulPartitionedCall/blocks_26/StatefulPartitionedCall/se/conv2d/Conv2D/ReadVariableOp", "shape": [1, 1, 768, 48], "dtype": "float32"}, {"name": "StatefulPartitionedCall/sequential_3/EfficientNet/StatefulPartitionedCall/StatefulPartitionedCall/StatefulPartitionedCall/blocks_26/StatefulPartitionedCall/se/conv2d/BiasAdd/ReadVariableOp", "shape": [48], "dtype": "float32"}, {"name": "StatefulPartitionedCall/sequential_3/EfficientNet/StatefulPartitionedCall/StatefulPartitionedCall/StatefulPartitionedCall/blocks_26/StatefulPartitionedCall/se/conv2d_1/Conv2D/ReadVariableOp", "shape": [1, 1, 48, 768], "dtype": "float32"}, {"name": "StatefulPartitionedCall/sequential_3/EfficientNet/StatefulPartitionedCall/StatefulPartitionedCall/StatefulPartitionedCall/blocks_26/StatefulPartitionedCall/se/conv2d_1/BiasAdd/ReadVariableOp", "shape": [768], "dtype": "float32"}, {"name": "StatefulPartitionedCall/sequential_3/EfficientNet/StatefulPartitionedCall/StatefulPartitionedCall/StatefulPartitionedCall/blocks_25/StatefulPartitionedCall/se/Mean/reduction_indices", "shape": [2], "dtype": "int32"}, {"name": "StatefulPartitionedCall/sequential_3/EfficientNet/StatefulPartitionedCall/StatefulPartitionedCall/StatefulPartitionedCall/blocks_25/StatefulPartitionedCall/se/conv2d/Conv2D/ReadVariableOp", "shape": [1, 1, 768, 48], "dtype": "float32"}, {"name": "StatefulPartitionedCall/sequential_3/EfficientNet/StatefulPartitionedCall/StatefulPartitionedCall/StatefulPartitionedCall/blocks_25/StatefulPartitionedCall/se/conv2d/BiasAdd/ReadVariableOp", "shape": [48], "dtype": "float32"}, {"name": "StatefulPartitionedCall/sequential_3/EfficientNet/StatefulPartitionedCall/StatefulPartitionedCall/StatefulPartitionedCall/blocks_25/StatefulPartitionedCall/se/conv2d_1/Conv2D/ReadVariableOp", "shape": [1, 1, 48, 768], "dtype": "float32"}, {"name": "StatefulPartitionedCall/sequential_3/EfficientNet/StatefulPartitionedCall/StatefulPartitionedCall/StatefulPartitionedCall/blocks_25/StatefulPartitionedCall/se/conv2d_1/BiasAdd/ReadVariableOp", "shape": [768], "dtype": "float32"}, {"name": "StatefulPartitionedCall/sequential_3/EfficientNet/StatefulPartitionedCall/StatefulPartitionedCall/StatefulPartitionedCall/blocks_24/StatefulPartitionedCall/se/Mean/reduction_indices", "shape": [2], "dtype": "int32"}, {"name": "StatefulPartitionedCall/sequential_3/EfficientNet/StatefulPartitionedCall/StatefulPartitionedCall/StatefulPartitionedCall/blocks_24/StatefulPartitionedCall/se/conv2d/Conv2D/ReadVariableOp", "shape": [1, 1, 768, 48], "dtype": "float32"}, {"name": "StatefulPartitionedCall/sequential_3/EfficientNet/StatefulPartitionedCall/StatefulPartitionedCall/StatefulPartitionedCall/blocks_24/StatefulPartitionedCall/se/conv2d/BiasAdd/ReadVariableOp", "shape": [48], "dtype": "float32"}, {"name": "StatefulPartitionedCall/sequential_3/EfficientNet/StatefulPartitionedCall/StatefulPartitionedCall/StatefulPartitionedCall/blocks_24/StatefulPartitionedCall/se/conv2d_1/Conv2D/ReadVariableOp", "shape": [1, 1, 48, 768], "dtype": "float32"}, {"name": "StatefulPartitionedCall/sequential_3/EfficientNet/StatefulPartitionedCall/StatefulPartitionedCall/StatefulPartitionedCall/blocks_24/StatefulPartitionedCall/se/conv2d_1/BiasAdd/ReadVariableOp", "shape": [768], "dtype": "float32"}, {"name": "StatefulPartitionedCall/sequential_3/EfficientNet/StatefulPartitionedCall/StatefulPartitionedCall/StatefulPartitionedCall/blocks_23/StatefulPartitionedCall/se/Mean/reduction_indices", "shape": [2], "dtype": "int32"}, {"name": "StatefulPartitionedCall/sequential_3/EfficientNet/StatefulPartitionedCall/StatefulPartitionedCall/StatefulPartitionedCall/blocks_23/StatefulPartitionedCall/se/conv2d/Conv2D/ReadVariableOp", "shape": [1, 1, 768, 48], "dtype": "float32"}, {"name": "StatefulPartitionedCall/sequential_3/EfficientNet/StatefulPartitionedCall/StatefulPartitionedCall/StatefulPartitionedCall/blocks_23/StatefulPartitionedCall/se/conv2d/BiasAdd/ReadVariableOp", "shape": [48], "dtype": "float32"}, {"name": "StatefulPartitionedCall/sequential_3/EfficientNet/StatefulPartitionedCall/StatefulPartitionedCall/StatefulPartitionedCall/blocks_23/StatefulPartitionedCall/se/conv2d_1/Conv2D/ReadVariableOp", "shape": [1, 1, 48, 768], "dtype": "float32"}, {"name": "StatefulPartitionedCall/sequential_3/EfficientNet/StatefulPartitionedCall/StatefulPartitionedCall/StatefulPartitionedCall/blocks_23/StatefulPartitionedCall/se/conv2d_1/BiasAdd/ReadVariableOp", "shape": [768], "dtype": "float32"}, {"name": "StatefulPartitionedCall/sequential_3/EfficientNet/StatefulPartitionedCall/StatefulPartitionedCall/StatefulPartitionedCall/blocks_22/StatefulPartitionedCall/se/Mean/reduction_indices", "shape": [2], "dtype": "int32"}, {"name": "StatefulPartitionedCall/sequential_3/EfficientNet/StatefulPartitionedCall/StatefulPartitionedCall/StatefulPartitionedCall/blocks_22/StatefulPartitionedCall/se/conv2d/Conv2D/ReadVariableOp", "shape": [1, 1, 768, 48], "dtype": "float32"}, {"name": "StatefulPartitionedCall/sequential_3/EfficientNet/StatefulPartitionedCall/StatefulPartitionedCall/StatefulPartitionedCall/blocks_22/StatefulPartitionedCall/se/conv2d/BiasAdd/ReadVariableOp", "shape": [48], "dtype": "float32"}, {"name": "StatefulPartitionedCall/sequential_3/EfficientNet/StatefulPartitionedCall/StatefulPartitionedCall/StatefulPartitionedCall/blocks_22/StatefulPartitionedCall/se/conv2d_1/Conv2D/ReadVariableOp", "shape": [1, 1, 48, 768], "dtype": "float32"}, {"name": "StatefulPartitionedCall/sequential_3/EfficientNet/StatefulPartitionedCall/StatefulPartitionedCall/StatefulPartitionedCall/blocks_22/StatefulPartitionedCall/se/conv2d_1/BiasAdd/ReadVariableOp", "shape": [768], "dtype": "float32"}, {"name": "StatefulPartitionedCall/sequential_3/EfficientNet/StatefulPartitionedCall/StatefulPartitionedCall/StatefulPartitionedCall/blocks_21/StatefulPartitionedCall/se/Mean/reduction_indices", "shape": [2], "dtype": "int32"}, {"name": "StatefulPartitionedCall/sequential_3/EfficientNet/StatefulPartitionedCall/StatefulPartitionedCall/StatefulPartitionedCall/blocks_21/StatefulPartitionedCall/se/conv2d/Conv2D/ReadVariableOp", "shape": [1, 1, 768, 48], "dtype": "float32"}, {"name": "StatefulPartitionedCall/sequential_3/EfficientNet/StatefulPartitionedCall/StatefulPartitionedCall/StatefulPartitionedCall/blocks_21/StatefulPartitionedCall/se/conv2d/BiasAdd/ReadVariableOp", "shape": [48], "dtype": "float32"}, {"name": "StatefulPartitionedCall/sequential_3/EfficientNet/StatefulPartitionedCall/StatefulPartitionedCall/StatefulPartitionedCall/blocks_21/StatefulPartitionedCall/se/conv2d_1/Conv2D/ReadVariableOp", "shape": [1, 1, 48, 768], "dtype": "float32"}, {"name": "StatefulPartitionedCall/sequential_3/EfficientNet/StatefulPartitionedCall/StatefulPartitionedCall/StatefulPartitionedCall/blocks_21/StatefulPartitionedCall/se/conv2d_1/BiasAdd/ReadVariableOp", "shape": [768], "dtype": "float32"}, {"name": "StatefulPartitionedCall/sequential_3/EfficientNet/StatefulPartitionedCall/StatefulPartitionedCall/StatefulPartitionedCall/blocks_20/StatefulPartitionedCall/se/Mean/reduction_indices", "shape": [2], "dtype": "int32"}, {"name": "StatefulPartitionedCall/sequential_3/EfficientNet/StatefulPartitionedCall/StatefulPartitionedCall/StatefulPartitionedCall/blocks_20/StatefulPartitionedCall/se/conv2d/Conv2D/ReadVariableOp", "shape": [1, 1, 768, 48], "dtype": "float32"}, {"name": "StatefulPartitionedCall/sequential_3/EfficientNet/StatefulPartitionedCall/StatefulPartitionedCall/StatefulPartitionedCall/blocks_20/StatefulPartitionedCall/se/conv2d/BiasAdd/ReadVariableOp", "shape": [48], "dtype": "float32"}, {"name": "StatefulPartitionedCall/sequential_3/EfficientNet/StatefulPartitionedCall/StatefulPartitionedCall/StatefulPartitionedCall/blocks_20/StatefulPartitionedCall/se/conv2d_1/Conv2D/ReadVariableOp", "shape": [1, 1, 48, 768], "dtype": "float32"}, {"name": "StatefulPartitionedCall/sequential_3/EfficientNet/StatefulPartitionedCall/StatefulPartitionedCall/StatefulPartitionedCall/blocks_20/StatefulPartitionedCall/se/conv2d_1/BiasAdd/ReadVariableOp", "shape": [768], "dtype": "float32"}, {"name": "StatefulPartitionedCall/sequential_3/EfficientNet/StatefulPartitionedCall/StatefulPartitionedCall/StatefulPartitionedCall/blocks_19/StatefulPartitionedCall/se/Mean/reduction_indices", "shape": [2], "dtype": "int32"}, {"name": "StatefulPartitionedCall/sequential_3/EfficientNet/StatefulPartitionedCall/StatefulPartitionedCall/StatefulPartitionedCall/blocks_19/StatefulPartitionedCall/se/conv2d/Conv2D/ReadVariableOp", "shape": [1, 1, 768, 48], "dtype": "float32"}, {"name": "StatefulPartitionedCall/sequential_3/EfficientNet/StatefulPartitionedCall/StatefulPartitionedCall/StatefulPartitionedCall/blocks_19/StatefulPartitionedCall/se/conv2d/BiasAdd/ReadVariableOp", "shape": [48], "dtype": "float32"}, {"name": "StatefulPartitionedCall/sequential_3/EfficientNet/StatefulPartitionedCall/StatefulPartitionedCall/StatefulPartitionedCall/blocks_19/StatefulPartitionedCall/se/conv2d_1/Conv2D/ReadVariableOp", "shape": [1, 1, 48, 768], "dtype": "float32"}, {"name": "StatefulPartitionedCall/sequential_3/EfficientNet/StatefulPartitionedCall/StatefulPartitionedCall/StatefulPartitionedCall/blocks_19/StatefulPartitionedCall/se/conv2d_1/BiasAdd/ReadVariableOp", "shape": [768], "dtype": "float32"}, {"name": "StatefulPartitionedCall/sequential_3/EfficientNet/StatefulPartitionedCall/StatefulPartitionedCall/StatefulPartitionedCall/blocks_18/StatefulPartitionedCall/se/Mean/reduction_indices", "shape": [2], "dtype": "int32"}, {"name": "StatefulPartitionedCall/sequential_3/EfficientNet/StatefulPartitionedCall/StatefulPartitionedCall/StatefulPartitionedCall/blocks_18/StatefulPartitionedCall/se/conv2d/Conv2D/ReadVariableOp", "shape": [1, 1, 384, 24], "dtype": "float32"}, {"name": "StatefulPartitionedCall/sequential_3/EfficientNet/StatefulPartitionedCall/StatefulPartitionedCall/StatefulPartitionedCall/blocks_18/StatefulPartitionedCall/se/conv2d/BiasAdd/ReadVariableOp", "shape": [24], "dtype": "float32"}, {"name": "StatefulPartitionedCall/sequential_3/EfficientNet/StatefulPartitionedCall/StatefulPartitionedCall/StatefulPartitionedCall/blocks_18/StatefulPartitionedCall/se/conv2d_1/Conv2D/ReadVariableOp", "shape": [1, 1, 24, 384], "dtype": "float32"}, {"name": "StatefulPartitionedCall/sequential_3/EfficientNet/StatefulPartitionedCall/StatefulPartitionedCall/StatefulPartitionedCall/blocks_18/StatefulPartitionedCall/se/conv2d_1/BiasAdd/ReadVariableOp", "shape": [384], "dtype": "float32"}, {"name": "StatefulPartitionedCall/sequential_3/EfficientNet/StatefulPartitionedCall/StatefulPartitionedCall/StatefulPartitionedCall/head/StatefulPartitionedCall/global_average_pooling2d/Mean/reduction_indices", "shape": [2], "dtype": "int32"}]}]}